{
  "nodes": [
    {
      "op": "null", 
      "name": "dice_gamma_5", 
      "inputs": []
    }, 
    {
      "op": "null", 
      "name": "dice_gamma_4", 
      "inputs": []
    }, 
    {
      "op": "null", 
      "name": "dice_gamma_3", 
      "inputs": []
    }, 
    {
      "op": "null", 
      "name": "dice_gamma_2", 
      "inputs": []
    }, 
    {
      "op": "null", 
      "name": "dice_gamma_1", 
      "inputs": []
    }, 
    {
      "op": "null", 
      "name": "ncomm", 
      "inputs": []
    }, 
    {
      "op": "null", 
      "name": "comm", 
      "inputs": []
    }, 
    {
      "op": "null", 
      "name": "indicator", 
      "inputs": []
    }, 
    {
      "op": "take", 
      "name": "take0", 
      "inputs": [[6, 0, 0], [7, 0, 0]]
    }, 
    {
      "op": "Concat", 
      "name": "concat0", 
      "attrs": {
        "dim": "1", 
        "num_args": "2"
      }, 
      "inputs": [[5, 0, 0], [8, 0, 0]]
    }, 
    {
      "op": "null", 
      "name": "att_comm", 
      "inputs": []
    }, 
    {
      "op": "slice_axis", 
      "name": "slice_axis0", 
      "attrs": {
        "axis": "1", 
        "begin": "0", 
        "end": "900"
      }, 
      "inputs": [[10, 0, 0]]
    }, 
    {
      "op": "slice_axis", 
      "name": "slice_axis1", 
      "attrs": {
        "axis": "1", 
        "begin": "0", 
        "end": "150"
      }, 
      "inputs": [[11, 0, 0]]
    }, 
    {
      "op": "slice_axis", 
      "name": "slice_axis2", 
      "attrs": {
        "axis": "1", 
        "begin": "150", 
        "end": "300"
      }, 
      "inputs": [[11, 0, 0]]
    }, 
    {
      "op": "Concat", 
      "name": "concat1", 
      "attrs": {
        "dim": "2", 
        "num_args": "2"
      }, 
      "inputs": [[12, 0, 0], [13, 0, 0]]
    }, 
    {
      "op": "slice_axis", 
      "name": "slice_axis3", 
      "attrs": {
        "axis": "1", 
        "begin": "300", 
        "end": "450"
      }, 
      "inputs": [[11, 0, 0]]
    }, 
    {
      "op": "Concat", 
      "name": "concat2", 
      "attrs": {
        "dim": "2", 
        "num_args": "2"
      }, 
      "inputs": [[14, 0, 0], [15, 0, 0]]
    }, 
    {
      "op": "slice_axis", 
      "name": "slice_axis4", 
      "attrs": {
        "axis": "1", 
        "begin": "450", 
        "end": "600"
      }, 
      "inputs": [[11, 0, 0]]
    }, 
    {
      "op": "Concat", 
      "name": "concat3", 
      "attrs": {
        "dim": "2", 
        "num_args": "2"
      }, 
      "inputs": [[16, 0, 0], [17, 0, 0]]
    }, 
    {
      "op": "slice_axis", 
      "name": "slice_axis5", 
      "attrs": {
        "axis": "1", 
        "begin": "600", 
        "end": "750"
      }, 
      "inputs": [[11, 0, 0]]
    }, 
    {
      "op": "Concat", 
      "name": "concat4", 
      "attrs": {
        "dim": "2", 
        "num_args": "2"
      }, 
      "inputs": [[18, 0, 0], [19, 0, 0]]
    }, 
    {
      "op": "slice_axis", 
      "name": "slice_axis6", 
      "attrs": {
        "axis": "1", 
        "begin": "750", 
        "end": "900"
      }, 
      "inputs": [[11, 0, 0]]
    }, 
    {
      "op": "Concat", 
      "name": "concat5", 
      "attrs": {
        "dim": "2", 
        "num_args": "2"
      }, 
      "inputs": [[20, 0, 0], [21, 0, 0]]
    }, 
    {
      "op": "sum", 
      "name": "sum0", 
      "attrs": {"axis": "1"}, 
      "inputs": [[22, 0, 0]]
    }, 
    {
      "op": "Reshape", 
      "name": "reshape0", 
      "attrs": {"shape": "(0, 108)"}, 
      "inputs": [[23, 0, 0]]
    }, 
    {
      "op": "take", 
      "name": "take1", 
      "inputs": [[24, 0, 0], [7, 0, 0]]
    }, 
    {
      "op": "Concat", 
      "name": "concat16", 
      "attrs": {
        "dim": "1", 
        "num_args": "2"
      }, 
      "inputs": [[9, 0, 0], [25, 0, 0]]
    }, 
    {
      "op": "slice_axis", 
      "name": "slice_axis7", 
      "attrs": {
        "axis": "1", 
        "begin": "900", 
        "end": "1800"
      }, 
      "inputs": [[10, 0, 0]]
    }, 
    {
      "op": "slice_axis", 
      "name": "slice_axis8", 
      "attrs": {
        "axis": "1", 
        "begin": "0", 
        "end": "150"
      }, 
      "inputs": [[27, 0, 0]]
    }, 
    {
      "op": "slice_axis", 
      "name": "slice_axis9", 
      "attrs": {
        "axis": "1", 
        "begin": "150", 
        "end": "300"
      }, 
      "inputs": [[27, 0, 0]]
    }, 
    {
      "op": "Concat", 
      "name": "concat6", 
      "attrs": {
        "dim": "2", 
        "num_args": "2"
      }, 
      "inputs": [[28, 0, 0], [29, 0, 0]]
    }, 
    {
      "op": "slice_axis", 
      "name": "slice_axis10", 
      "attrs": {
        "axis": "1", 
        "begin": "300", 
        "end": "450"
      }, 
      "inputs": [[27, 0, 0]]
    }, 
    {
      "op": "Concat", 
      "name": "concat7", 
      "attrs": {
        "dim": "2", 
        "num_args": "2"
      }, 
      "inputs": [[30, 0, 0], [31, 0, 0]]
    }, 
    {
      "op": "slice_axis", 
      "name": "slice_axis11", 
      "attrs": {
        "axis": "1", 
        "begin": "450", 
        "end": "600"
      }, 
      "inputs": [[27, 0, 0]]
    }, 
    {
      "op": "Concat", 
      "name": "concat8", 
      "attrs": {
        "dim": "2", 
        "num_args": "2"
      }, 
      "inputs": [[32, 0, 0], [33, 0, 0]]
    }, 
    {
      "op": "slice_axis", 
      "name": "slice_axis12", 
      "attrs": {
        "axis": "1", 
        "begin": "600", 
        "end": "750"
      }, 
      "inputs": [[27, 0, 0]]
    }, 
    {
      "op": "Concat", 
      "name": "concat9", 
      "attrs": {
        "dim": "2", 
        "num_args": "2"
      }, 
      "inputs": [[34, 0, 0], [35, 0, 0]]
    }, 
    {
      "op": "slice_axis", 
      "name": "slice_axis13", 
      "attrs": {
        "axis": "1", 
        "begin": "750", 
        "end": "900"
      }, 
      "inputs": [[27, 0, 0]]
    }, 
    {
      "op": "Concat", 
      "name": "concat10", 
      "attrs": {
        "dim": "2", 
        "num_args": "2"
      }, 
      "inputs": [[36, 0, 0], [37, 0, 0]]
    }, 
    {
      "op": "sum", 
      "name": "sum1", 
      "attrs": {"axis": "1"}, 
      "inputs": [[38, 0, 0]]
    }, 
    {
      "op": "Reshape", 
      "name": "reshape1", 
      "attrs": {"shape": "(0, 108)"}, 
      "inputs": [[39, 0, 0]]
    }, 
    {
      "op": "take", 
      "name": "take2", 
      "inputs": [[40, 0, 0], [7, 0, 0]]
    }, 
    {
      "op": "Concat", 
      "name": "concat17", 
      "attrs": {
        "dim": "1", 
        "num_args": "2"
      }, 
      "inputs": [[26, 0, 0], [41, 0, 0]]
    }, 
    {
      "op": "null", 
      "name": "fc3d_16_weight", 
      "attrs": {
        "flatten": "0", 
        "num_hidden": "36"
      }, 
      "inputs": []
    }, 
    {
      "op": "null", 
      "name": "fc3d_16_bias", 
      "attrs": {
        "flatten": "0", 
        "num_hidden": "36"
      }, 
      "inputs": []
    }, 
    {
      "op": "FullyConnected", 
      "name": "fc3d_16", 
      "attrs": {
        "flatten": "0", 
        "num_hidden": "36"
      }, 
      "inputs": [[22, 0, 0], [43, 0, 0], [44, 0, 0]]
    }, 
    {
      "op": "take", 
      "name": "take3", 
      "inputs": [[45, 0, 0], [7, 0, 0]]
    }, 
    {
      "op": "slice_axis", 
      "name": "slice_axis23", 
      "attrs": {
        "axis": "1", 
        "begin": "72", 
        "end": "90"
      }, 
      "inputs": [[5, 0, 0]]
    }, 
    {
      "op": "slice_axis", 
      "name": "slice_axis24", 
      "attrs": {
        "axis": "1", 
        "begin": "90", 
        "end": "108"
      }, 
      "inputs": [[5, 0, 0]]
    }, 
    {
      "op": "slice_axis", 
      "name": "slice_axis26", 
      "attrs": {
        "axis": "1", 
        "begin": "126", 
        "end": "144"
      }, 
      "inputs": [[5, 0, 0]]
    }, 
    {
      "op": "slice_axis", 
      "name": "slice_axis25", 
      "attrs": {
        "axis": "1", 
        "begin": "108", 
        "end": "126"
      }, 
      "inputs": [[5, 0, 0]]
    }, 
    {
      "op": "slice_axis", 
      "name": "slice_axis28", 
      "attrs": {
        "axis": "1", 
        "begin": "234", 
        "end": "252"
      }, 
      "inputs": [[5, 0, 0]]
    }, 
    {
      "op": "slice_axis", 
      "name": "slice_axis27", 
      "attrs": {
        "axis": "1", 
        "begin": "216", 
        "end": "234"
      }, 
      "inputs": [[5, 0, 0]]
    }, 
    {
      "op": "Concat", 
      "name": "concat18", 
      "attrs": {
        "dim": "1", 
        "num_args": "6"
      }, 
      "inputs": [[47, 0, 0], [48, 0, 0], [49, 0, 0], [50, 0, 0], [51, 0, 0], [52, 0, 0]]
    }, 
    {
      "op": "Reshape", 
      "name": "reshape2", 
      "attrs": {"shape": "(0, 1, 108)"}, 
      "inputs": [[53, 0, 0]]
    }, 
    {
      "op": "null", 
      "name": "fc3d_10_weight", 
      "attrs": {
        "flatten": "0", 
        "num_hidden": "36"
      }, 
      "inputs": []
    }, 
    {
      "op": "null", 
      "name": "fc3d_10_bias", 
      "attrs": {
        "flatten": "0", 
        "num_hidden": "36"
      }, 
      "inputs": []
    }, 
    {
      "op": "FullyConnected", 
      "name": "fc3d_10", 
      "attrs": {
        "flatten": "0", 
        "num_hidden": "36"
      }, 
      "inputs": [[54, 0, 0], [55, 0, 0], [56, 0, 0]]
    }, 
    {
      "op": "null", 
      "name": "fc3d_11_weight", 
      "attrs": {
        "flatten": "0", 
        "num_hidden": "36"
      }, 
      "inputs": []
    }, 
    {
      "op": "null", 
      "name": "fc3d_11_bias", 
      "attrs": {
        "flatten": "0", 
        "num_hidden": "36"
      }, 
      "inputs": []
    }, 
    {
      "op": "FullyConnected", 
      "name": "fc3d_11", 
      "attrs": {
        "flatten": "0", 
        "num_hidden": "36"
      }, 
      "inputs": [[57, 0, 0], [58, 0, 0], [59, 0, 0]]
    }, 
    {
      "op": "batch_dot", 
      "name": "batch_dot0", 
      "attrs": {"transpose_b": "True"}, 
      "inputs": [[46, 0, 0], [60, 0, 0]]
    }, 
    {
      "op": "Reshape", 
      "name": "reshape3", 
      "attrs": {"shape": "(0, 150)"}, 
      "inputs": [[61, 0, 0]]
    }, 
    {
      "op": "SoftmaxActivation", 
      "name": "softmaxactivation0", 
      "inputs": [[62, 0, 0]]
    }, 
    {
      "op": "_plus_scalar", 
      "name": "_plusscalar0", 
      "attrs": {"scalar": "1e-07"}, 
      "inputs": [[63, 0, 0]]
    }, 
    {
      "op": "Reshape", 
      "name": "reshape4", 
      "attrs": {"shape": "(0, 0, 1)"}, 
      "inputs": [[64, 0, 0]]
    }, 
    {
      "op": "broadcast_mul", 
      "name": "broadcast_mul0", 
      "inputs": [[46, 0, 0], [65, 0, 0]]
    }, 
    {
      "op": "null", 
      "name": "fc3d_17_weight", 
      "attrs": {
        "flatten": "0", 
        "num_hidden": "36"
      }, 
      "inputs": []
    }, 
    {
      "op": "null", 
      "name": "fc3d_17_bias", 
      "attrs": {
        "flatten": "0", 
        "num_hidden": "36"
      }, 
      "inputs": []
    }, 
    {
      "op": "FullyConnected", 
      "name": "fc3d_17", 
      "attrs": {
        "flatten": "0", 
        "num_hidden": "36"
      }, 
      "inputs": [[22, 0, 0], [67, 0, 0], [68, 0, 0]]
    }, 
    {
      "op": "take", 
      "name": "take4", 
      "inputs": [[69, 0, 0], [7, 0, 0]]
    }, 
    {
      "op": "null", 
      "name": "fc3d_12_weight", 
      "attrs": {
        "flatten": "0", 
        "num_hidden": "36"
      }, 
      "inputs": []
    }, 
    {
      "op": "null", 
      "name": "fc3d_12_bias", 
      "attrs": {
        "flatten": "0", 
        "num_hidden": "36"
      }, 
      "inputs": []
    }, 
    {
      "op": "FullyConnected", 
      "name": "fc3d_12", 
      "attrs": {
        "flatten": "0", 
        "num_hidden": "36"
      }, 
      "inputs": [[54, 0, 0], [71, 0, 0], [72, 0, 0]]
    }, 
    {
      "op": "null", 
      "name": "fc3d_13_weight", 
      "attrs": {
        "flatten": "0", 
        "num_hidden": "36"
      }, 
      "inputs": []
    }, 
    {
      "op": "null", 
      "name": "fc3d_13_bias", 
      "attrs": {
        "flatten": "0", 
        "num_hidden": "36"
      }, 
      "inputs": []
    }, 
    {
      "op": "FullyConnected", 
      "name": "fc3d_13", 
      "attrs": {
        "flatten": "0", 
        "num_hidden": "36"
      }, 
      "inputs": [[73, 0, 0], [74, 0, 0], [75, 0, 0]]
    }, 
    {
      "op": "batch_dot", 
      "name": "batch_dot1", 
      "attrs": {"transpose_b": "True"}, 
      "inputs": [[70, 0, 0], [76, 0, 0]]
    }, 
    {
      "op": "Reshape", 
      "name": "reshape5", 
      "attrs": {"shape": "(0, 150)"}, 
      "inputs": [[77, 0, 0]]
    }, 
    {
      "op": "SoftmaxActivation", 
      "name": "softmaxactivation1", 
      "inputs": [[78, 0, 0]]
    }, 
    {
      "op": "_plus_scalar", 
      "name": "_plusscalar1", 
      "attrs": {"scalar": "1e-07"}, 
      "inputs": [[79, 0, 0]]
    }, 
    {
      "op": "Reshape", 
      "name": "reshape6", 
      "attrs": {"shape": "(0, 0, 1)"}, 
      "inputs": [[80, 0, 0]]
    }, 
    {
      "op": "broadcast_mul", 
      "name": "broadcast_mul1", 
      "inputs": [[70, 0, 0], [81, 0, 0]]
    }, 
    {
      "op": "null", 
      "name": "fc3d_18_weight", 
      "attrs": {
        "flatten": "0", 
        "num_hidden": "36"
      }, 
      "inputs": []
    }, 
    {
      "op": "null", 
      "name": "fc3d_18_bias", 
      "attrs": {
        "flatten": "0", 
        "num_hidden": "36"
      }, 
      "inputs": []
    }, 
    {
      "op": "FullyConnected", 
      "name": "fc3d_18", 
      "attrs": {
        "flatten": "0", 
        "num_hidden": "36"
      }, 
      "inputs": [[22, 0, 0], [83, 0, 0], [84, 0, 0]]
    }, 
    {
      "op": "take", 
      "name": "take5", 
      "inputs": [[85, 0, 0], [7, 0, 0]]
    }, 
    {
      "op": "null", 
      "name": "fc3d_14_weight", 
      "attrs": {
        "flatten": "0", 
        "num_hidden": "36"
      }, 
      "inputs": []
    }, 
    {
      "op": "null", 
      "name": "fc3d_14_bias", 
      "attrs": {
        "flatten": "0", 
        "num_hidden": "36"
      }, 
      "inputs": []
    }, 
    {
      "op": "FullyConnected", 
      "name": "fc3d_14", 
      "attrs": {
        "flatten": "0", 
        "num_hidden": "36"
      }, 
      "inputs": [[54, 0, 0], [87, 0, 0], [88, 0, 0]]
    }, 
    {
      "op": "null", 
      "name": "fc3d_15_weight", 
      "attrs": {
        "flatten": "0", 
        "num_hidden": "36"
      }, 
      "inputs": []
    }, 
    {
      "op": "null", 
      "name": "fc3d_15_bias", 
      "attrs": {
        "flatten": "0", 
        "num_hidden": "36"
      }, 
      "inputs": []
    }, 
    {
      "op": "FullyConnected", 
      "name": "fc3d_15", 
      "attrs": {
        "flatten": "0", 
        "num_hidden": "36"
      }, 
      "inputs": [[89, 0, 0], [90, 0, 0], [91, 0, 0]]
    }, 
    {
      "op": "batch_dot", 
      "name": "batch_dot2", 
      "attrs": {"transpose_b": "True"}, 
      "inputs": [[86, 0, 0], [92, 0, 0]]
    }, 
    {
      "op": "Reshape", 
      "name": "reshape7", 
      "attrs": {"shape": "(0, 150)"}, 
      "inputs": [[93, 0, 0]]
    }, 
    {
      "op": "SoftmaxActivation", 
      "name": "softmaxactivation2", 
      "inputs": [[94, 0, 0]]
    }, 
    {
      "op": "_plus_scalar", 
      "name": "_plusscalar2", 
      "attrs": {"scalar": "1e-07"}, 
      "inputs": [[95, 0, 0]]
    }, 
    {
      "op": "Reshape", 
      "name": "reshape8", 
      "attrs": {"shape": "(0, 0, 1)"}, 
      "inputs": [[96, 0, 0]]
    }, 
    {
      "op": "broadcast_mul", 
      "name": "broadcast_mul2", 
      "inputs": [[86, 0, 0], [97, 0, 0]]
    }, 
    {
      "op": "Concat", 
      "name": "concat19", 
      "attrs": {
        "dim": "2", 
        "num_args": "3"
      }, 
      "inputs": [[66, 0, 0], [82, 0, 0], [98, 0, 0]]
    }, 
    {
      "op": "Reshape", 
      "name": "reshape9", 
      "attrs": {"shape": "(0, 0, 108)"}, 
      "inputs": [[99, 0, 0]]
    }, 
    {
      "op": "sum", 
      "name": "sum_axis0", 
      "attrs": {"axis": "1"}, 
      "inputs": [[100, 0, 0]]
    }, 
    {
      "op": "null", 
      "name": "fc3d_26_weight", 
      "attrs": {
        "flatten": "0", 
        "num_hidden": "36"
      }, 
      "inputs": []
    }, 
    {
      "op": "null", 
      "name": "fc3d_26_bias", 
      "attrs": {
        "flatten": "0", 
        "num_hidden": "36"
      }, 
      "inputs": []
    }, 
    {
      "op": "FullyConnected", 
      "name": "fc3d_26", 
      "attrs": {
        "flatten": "0", 
        "num_hidden": "36"
      }, 
      "inputs": [[38, 0, 0], [102, 0, 0], [103, 0, 0]]
    }, 
    {
      "op": "take", 
      "name": "take6", 
      "inputs": [[104, 0, 0], [7, 0, 0]]
    }, 
    {
      "op": "null", 
      "name": "fc3d_20_weight", 
      "attrs": {
        "flatten": "0", 
        "num_hidden": "36"
      }, 
      "inputs": []
    }, 
    {
      "op": "null", 
      "name": "fc3d_20_bias", 
      "attrs": {
        "flatten": "0", 
        "num_hidden": "36"
      }, 
      "inputs": []
    }, 
    {
      "op": "FullyConnected", 
      "name": "fc3d_20", 
      "attrs": {
        "flatten": "0", 
        "num_hidden": "36"
      }, 
      "inputs": [[54, 0, 0], [106, 0, 0], [107, 0, 0]]
    }, 
    {
      "op": "null", 
      "name": "fc3d_21_weight", 
      "attrs": {
        "flatten": "0", 
        "num_hidden": "36"
      }, 
      "inputs": []
    }, 
    {
      "op": "null", 
      "name": "fc3d_21_bias", 
      "attrs": {
        "flatten": "0", 
        "num_hidden": "36"
      }, 
      "inputs": []
    }, 
    {
      "op": "FullyConnected", 
      "name": "fc3d_21", 
      "attrs": {
        "flatten": "0", 
        "num_hidden": "36"
      }, 
      "inputs": [[108, 0, 0], [109, 0, 0], [110, 0, 0]]
    }, 
    {
      "op": "batch_dot", 
      "name": "batch_dot3", 
      "attrs": {"transpose_b": "True"}, 
      "inputs": [[105, 0, 0], [111, 0, 0]]
    }, 
    {
      "op": "Reshape", 
      "name": "reshape10", 
      "attrs": {"shape": "(0, 150)"}, 
      "inputs": [[112, 0, 0]]
    }, 
    {
      "op": "SoftmaxActivation", 
      "name": "softmaxactivation3", 
      "inputs": [[113, 0, 0]]
    }, 
    {
      "op": "_plus_scalar", 
      "name": "_plusscalar3", 
      "attrs": {"scalar": "1e-07"}, 
      "inputs": [[114, 0, 0]]
    }, 
    {
      "op": "Reshape", 
      "name": "reshape11", 
      "attrs": {"shape": "(0, 0, 1)"}, 
      "inputs": [[115, 0, 0]]
    }, 
    {
      "op": "broadcast_mul", 
      "name": "broadcast_mul3", 
      "inputs": [[105, 0, 0], [116, 0, 0]]
    }, 
    {
      "op": "null", 
      "name": "fc3d_27_weight", 
      "attrs": {
        "flatten": "0", 
        "num_hidden": "36"
      }, 
      "inputs": []
    }, 
    {
      "op": "null", 
      "name": "fc3d_27_bias", 
      "attrs": {
        "flatten": "0", 
        "num_hidden": "36"
      }, 
      "inputs": []
    }, 
    {
      "op": "FullyConnected", 
      "name": "fc3d_27", 
      "attrs": {
        "flatten": "0", 
        "num_hidden": "36"
      }, 
      "inputs": [[38, 0, 0], [118, 0, 0], [119, 0, 0]]
    }, 
    {
      "op": "take", 
      "name": "take7", 
      "inputs": [[120, 0, 0], [7, 0, 0]]
    }, 
    {
      "op": "null", 
      "name": "fc3d_22_weight", 
      "attrs": {
        "flatten": "0", 
        "num_hidden": "36"
      }, 
      "inputs": []
    }, 
    {
      "op": "null", 
      "name": "fc3d_22_bias", 
      "attrs": {
        "flatten": "0", 
        "num_hidden": "36"
      }, 
      "inputs": []
    }, 
    {
      "op": "FullyConnected", 
      "name": "fc3d_22", 
      "attrs": {
        "flatten": "0", 
        "num_hidden": "36"
      }, 
      "inputs": [[54, 0, 0], [122, 0, 0], [123, 0, 0]]
    }, 
    {
      "op": "null", 
      "name": "fc3d_23_weight", 
      "attrs": {
        "flatten": "0", 
        "num_hidden": "36"
      }, 
      "inputs": []
    }, 
    {
      "op": "null", 
      "name": "fc3d_23_bias", 
      "attrs": {
        "flatten": "0", 
        "num_hidden": "36"
      }, 
      "inputs": []
    }, 
    {
      "op": "FullyConnected", 
      "name": "fc3d_23", 
      "attrs": {
        "flatten": "0", 
        "num_hidden": "36"
      }, 
      "inputs": [[124, 0, 0], [125, 0, 0], [126, 0, 0]]
    }, 
    {
      "op": "batch_dot", 
      "name": "batch_dot4", 
      "attrs": {"transpose_b": "True"}, 
      "inputs": [[121, 0, 0], [127, 0, 0]]
    }, 
    {
      "op": "Reshape", 
      "name": "reshape12", 
      "attrs": {"shape": "(0, 150)"}, 
      "inputs": [[128, 0, 0]]
    }, 
    {
      "op": "SoftmaxActivation", 
      "name": "softmaxactivation4", 
      "inputs": [[129, 0, 0]]
    }, 
    {
      "op": "_plus_scalar", 
      "name": "_plusscalar4", 
      "attrs": {"scalar": "1e-07"}, 
      "inputs": [[130, 0, 0]]
    }, 
    {
      "op": "Reshape", 
      "name": "reshape13", 
      "attrs": {"shape": "(0, 0, 1)"}, 
      "inputs": [[131, 0, 0]]
    }, 
    {
      "op": "broadcast_mul", 
      "name": "broadcast_mul4", 
      "inputs": [[121, 0, 0], [132, 0, 0]]
    }, 
    {
      "op": "null", 
      "name": "fc3d_28_weight", 
      "attrs": {
        "flatten": "0", 
        "num_hidden": "36"
      }, 
      "inputs": []
    }, 
    {
      "op": "null", 
      "name": "fc3d_28_bias", 
      "attrs": {
        "flatten": "0", 
        "num_hidden": "36"
      }, 
      "inputs": []
    }, 
    {
      "op": "FullyConnected", 
      "name": "fc3d_28", 
      "attrs": {
        "flatten": "0", 
        "num_hidden": "36"
      }, 
      "inputs": [[38, 0, 0], [134, 0, 0], [135, 0, 0]]
    }, 
    {
      "op": "take", 
      "name": "take8", 
      "inputs": [[136, 0, 0], [7, 0, 0]]
    }, 
    {
      "op": "null", 
      "name": "fc3d_24_weight", 
      "attrs": {
        "flatten": "0", 
        "num_hidden": "36"
      }, 
      "inputs": []
    }, 
    {
      "op": "null", 
      "name": "fc3d_24_bias", 
      "attrs": {
        "flatten": "0", 
        "num_hidden": "36"
      }, 
      "inputs": []
    }, 
    {
      "op": "FullyConnected", 
      "name": "fc3d_24", 
      "attrs": {
        "flatten": "0", 
        "num_hidden": "36"
      }, 
      "inputs": [[54, 0, 0], [138, 0, 0], [139, 0, 0]]
    }, 
    {
      "op": "null", 
      "name": "fc3d_25_weight", 
      "attrs": {
        "flatten": "0", 
        "num_hidden": "36"
      }, 
      "inputs": []
    }, 
    {
      "op": "null", 
      "name": "fc3d_25_bias", 
      "attrs": {
        "flatten": "0", 
        "num_hidden": "36"
      }, 
      "inputs": []
    }, 
    {
      "op": "FullyConnected", 
      "name": "fc3d_25", 
      "attrs": {
        "flatten": "0", 
        "num_hidden": "36"
      }, 
      "inputs": [[140, 0, 0], [141, 0, 0], [142, 0, 0]]
    }, 
    {
      "op": "batch_dot", 
      "name": "batch_dot5", 
      "attrs": {"transpose_b": "True"}, 
      "inputs": [[137, 0, 0], [143, 0, 0]]
    }, 
    {
      "op": "Reshape", 
      "name": "reshape14", 
      "attrs": {"shape": "(0, 150)"}, 
      "inputs": [[144, 0, 0]]
    }, 
    {
      "op": "SoftmaxActivation", 
      "name": "softmaxactivation5", 
      "inputs": [[145, 0, 0]]
    }, 
    {
      "op": "_plus_scalar", 
      "name": "_plusscalar5", 
      "attrs": {"scalar": "1e-07"}, 
      "inputs": [[146, 0, 0]]
    }, 
    {
      "op": "Reshape", 
      "name": "reshape15", 
      "attrs": {"shape": "(0, 0, 1)"}, 
      "inputs": [[147, 0, 0]]
    }, 
    {
      "op": "broadcast_mul", 
      "name": "broadcast_mul5", 
      "inputs": [[137, 0, 0], [148, 0, 0]]
    }, 
    {
      "op": "Concat", 
      "name": "concat20", 
      "attrs": {
        "dim": "2", 
        "num_args": "3"
      }, 
      "inputs": [[117, 0, 0], [133, 0, 0], [149, 0, 0]]
    }, 
    {
      "op": "Reshape", 
      "name": "reshape16", 
      "attrs": {"shape": "(0, 0, 108)"}, 
      "inputs": [[150, 0, 0]]
    }, 
    {
      "op": "sum", 
      "name": "sum_axis1", 
      "attrs": {"axis": "1"}, 
      "inputs": [[151, 0, 0]]
    }, 
    {
      "op": "slice_axis", 
      "name": "slice_axis21", 
      "attrs": {
        "axis": "1", 
        "begin": "100", 
        "end": "150"
      }, 
      "inputs": [[38, 0, 0]]
    }, 
    {
      "op": "slice_axis", 
      "name": "slice_axis29", 
      "attrs": {
        "axis": "1", 
        "begin": "0", 
        "end": "1"
      }, 
      "inputs": [[153, 0, 0]]
    }, 
    {
      "op": "null", 
      "name": "gru_40_i2h_weight", 
      "inputs": []
    }, 
    {
      "op": "null", 
      "name": "gru_40_i2h_bias", 
      "inputs": []
    }, 
    {
      "op": "FullyConnected", 
      "name": "gru_40_t0__i2h", 
      "attrs": {"num_hidden": "324"}, 
      "inputs": [[154, 0, 0], [155, 0, 0], [156, 0, 0]]
    }, 
    {
      "op": "SliceChannel", 
      "name": "gru_40_t0__i2h_slice", 
      "attrs": {"num_outputs": "3"}, 
      "inputs": [[157, 0, 0]]
    }, 
    {
      "op": "_zeros", 
      "name": "gru_40_begin_state_0", 
      "attrs": {
        "__layout__": "NC", 
        "dtype": "float32", 
        "shape": "(0, 108)"
      }, 
      "inputs": []
    }, 
    {
      "op": "null", 
      "name": "gru_40_h2h_weight", 
      "inputs": []
    }, 
    {
      "op": "null", 
      "name": "gru_40_h2h_bias", 
      "inputs": []
    }, 
    {
      "op": "FullyConnected", 
      "name": "gru_40_t0__h2h", 
      "attrs": {"num_hidden": "324"}, 
      "inputs": [[159, 0, 0], [160, 0, 0], [161, 0, 0]]
    }, 
    {
      "op": "SliceChannel", 
      "name": "gru_40_t0__h2h_slice", 
      "attrs": {"num_outputs": "3"}, 
      "inputs": [[162, 0, 0]]
    }, 
    {
      "op": "elemwise_add", 
      "name": "_plus1", 
      "inputs": [[158, 1, 0], [163, 1, 0]]
    }, 
    {
      "op": "Activation", 
      "name": "gru_40_t0__z_act", 
      "attrs": {"act_type": "sigmoid"}, 
      "inputs": [[164, 0, 0]]
    }, 
    {
      "op": "_rminus_scalar", 
      "name": "_rminusscalar0", 
      "attrs": {"scalar": "1.0"}, 
      "inputs": [[165, 0, 0]]
    }, 
    {
      "op": "elemwise_add", 
      "name": "_plus0", 
      "inputs": [[158, 0, 0], [163, 0, 0]]
    }, 
    {
      "op": "Activation", 
      "name": "gru_40_t0__r_act", 
      "attrs": {"act_type": "sigmoid"}, 
      "inputs": [[167, 0, 0]]
    }, 
    {
      "op": "elemwise_mul", 
      "name": "_mul0", 
      "inputs": [[168, 0, 0], [163, 2, 0]]
    }, 
    {
      "op": "elemwise_add", 
      "name": "_plus2", 
      "inputs": [[158, 2, 0], [169, 0, 0]]
    }, 
    {
      "op": "Activation", 
      "name": "gru_40_t0__h_act", 
      "attrs": {"act_type": "tanh"}, 
      "inputs": [[170, 0, 0]]
    }, 
    {
      "op": "elemwise_mul", 
      "name": "_mul1", 
      "inputs": [[166, 0, 0], [171, 0, 0]]
    }, 
    {
      "op": "elemwise_mul", 
      "name": "_mul2", 
      "inputs": [[165, 0, 0], [159, 0, 0]]
    }, 
    {
      "op": "elemwise_add", 
      "name": "gru_40_t0_out", 
      "inputs": [[172, 0, 0], [173, 0, 0]]
    }, 
    {
      "op": "_equal_scalar", 
      "name": "_equal_scalar0", 
      "attrs": {"scalar": "0"}, 
      "inputs": [[154, 0, 0]]
    }, 
    {
      "op": "Reshape", 
      "name": "reshape17", 
      "attrs": {"shape": "(0, 108)"}, 
      "inputs": [[175, 0, 0]]
    }, 
    {
      "op": "sum", 
      "name": "sum2", 
      "attrs": {
        "axis": "1", 
        "keepdims": "True"
      }, 
      "inputs": [[176, 0, 0]]
    }, 
    {
      "op": "_not_equal_scalar", 
      "name": "_not_equal_scalar0", 
      "attrs": {"scalar": "108"}, 
      "inputs": [[177, 0, 0]]
    }, 
    {
      "op": "Reshape", 
      "name": "reshape18", 
      "attrs": {"shape": "(0, 1)"}, 
      "inputs": [[178, 0, 0]]
    }, 
    {
      "op": "broadcast_mul", 
      "name": "broadcast_mul6", 
      "inputs": [[174, 0, 0], [179, 0, 0]]
    }, 
    {
      "op": "Reshape", 
      "name": "reshape19", 
      "attrs": {"shape": "(0, 1, 108)"}, 
      "inputs": [[180, 0, 0]]
    }, 
    {
      "op": "slice_axis", 
      "name": "slice_axis30", 
      "attrs": {
        "axis": "1", 
        "begin": "1", 
        "end": "2"
      }, 
      "inputs": [[153, 0, 0]]
    }, 
    {
      "op": "_equal_scalar", 
      "name": "_equal_scalar1", 
      "attrs": {"scalar": "0"}, 
      "inputs": [[182, 0, 0]]
    }, 
    {
      "op": "Reshape", 
      "name": "reshape20", 
      "attrs": {"shape": "(0, 108)"}, 
      "inputs": [[183, 0, 0]]
    }, 
    {
      "op": "sum", 
      "name": "sum3", 
      "attrs": {
        "axis": "1", 
        "keepdims": "True"
      }, 
      "inputs": [[184, 0, 0]]
    }, 
    {
      "op": "_not_equal_scalar", 
      "name": "_not_equal_scalar1", 
      "attrs": {"scalar": "108"}, 
      "inputs": [[185, 0, 0]]
    }, 
    {
      "op": "Reshape", 
      "name": "reshape21", 
      "attrs": {"shape": "(0, 1)"}, 
      "inputs": [[186, 0, 0]]
    }, 
    {
      "op": "_rminus_scalar", 
      "name": "_rminusscalar2", 
      "attrs": {"scalar": "1"}, 
      "inputs": [[187, 0, 0]]
    }, 
    {
      "op": "broadcast_mul", 
      "name": "broadcast_mul8", 
      "inputs": [[180, 0, 0], [188, 0, 0]]
    }, 
    {
      "op": "FullyConnected", 
      "name": "gru_40_t1__i2h", 
      "attrs": {"num_hidden": "324"}, 
      "inputs": [[182, 0, 0], [155, 0, 0], [156, 0, 0]]
    }, 
    {
      "op": "SliceChannel", 
      "name": "gru_40_t1__i2h_slice", 
      "attrs": {"num_outputs": "3"}, 
      "inputs": [[190, 0, 0]]
    }, 
    {
      "op": "broadcast_mul", 
      "name": "broadcast_mul7", 
      "inputs": [[174, 0, 0], [179, 0, 0]]
    }, 
    {
      "op": "FullyConnected", 
      "name": "gru_40_t1__h2h", 
      "attrs": {"num_hidden": "324"}, 
      "inputs": [[192, 0, 0], [160, 0, 0], [161, 0, 0]]
    }, 
    {
      "op": "SliceChannel", 
      "name": "gru_40_t1__h2h_slice", 
      "attrs": {"num_outputs": "3"}, 
      "inputs": [[193, 0, 0]]
    }, 
    {
      "op": "elemwise_add", 
      "name": "_plus4", 
      "inputs": [[191, 1, 0], [194, 1, 0]]
    }, 
    {
      "op": "Activation", 
      "name": "gru_40_t1__z_act", 
      "attrs": {"act_type": "sigmoid"}, 
      "inputs": [[195, 0, 0]]
    }, 
    {
      "op": "_rminus_scalar", 
      "name": "_rminusscalar1", 
      "attrs": {"scalar": "1.0"}, 
      "inputs": [[196, 0, 0]]
    }, 
    {
      "op": "elemwise_add", 
      "name": "_plus3", 
      "inputs": [[191, 0, 0], [194, 0, 0]]
    }, 
    {
      "op": "Activation", 
      "name": "gru_40_t1__r_act", 
      "attrs": {"act_type": "sigmoid"}, 
      "inputs": [[198, 0, 0]]
    }, 
    {
      "op": "elemwise_mul", 
      "name": "_mul3", 
      "inputs": [[199, 0, 0], [194, 2, 0]]
    }, 
    {
      "op": "elemwise_add", 
      "name": "_plus5", 
      "inputs": [[191, 2, 0], [200, 0, 0]]
    }, 
    {
      "op": "Activation", 
      "name": "gru_40_t1__h_act", 
      "attrs": {"act_type": "tanh"}, 
      "inputs": [[201, 0, 0]]
    }, 
    {
      "op": "elemwise_mul", 
      "name": "_mul4", 
      "inputs": [[197, 0, 0], [202, 0, 0]]
    }, 
    {
      "op": "elemwise_mul", 
      "name": "_mul5", 
      "inputs": [[196, 0, 0], [192, 0, 0]]
    }, 
    {
      "op": "elemwise_add", 
      "name": "gru_40_t1_out", 
      "inputs": [[203, 0, 0], [204, 0, 0]]
    }, 
    {
      "op": "broadcast_mul", 
      "name": "broadcast_mul9", 
      "inputs": [[205, 0, 0], [187, 0, 0]]
    }, 
    {
      "op": "elemwise_add", 
      "name": "_plus6", 
      "inputs": [[189, 0, 0], [206, 0, 0]]
    }, 
    {
      "op": "Reshape", 
      "name": "reshape22", 
      "attrs": {"shape": "(0, 1, 108)"}, 
      "inputs": [[207, 0, 0]]
    }, 
    {
      "op": "Concat", 
      "name": "concat21", 
      "attrs": {
        "dim": "1", 
        "num_args": "2"
      }, 
      "inputs": [[181, 0, 0], [208, 0, 0]]
    }, 
    {
      "op": "slice_axis", 
      "name": "slice_axis31", 
      "attrs": {
        "axis": "1", 
        "begin": "2", 
        "end": "3"
      }, 
      "inputs": [[153, 0, 0]]
    }, 
    {
      "op": "_equal_scalar", 
      "name": "_equal_scalar2", 
      "attrs": {"scalar": "0"}, 
      "inputs": [[210, 0, 0]]
    }, 
    {
      "op": "Reshape", 
      "name": "reshape23", 
      "attrs": {"shape": "(0, 108)"}, 
      "inputs": [[211, 0, 0]]
    }, 
    {
      "op": "sum", 
      "name": "sum4", 
      "attrs": {
        "axis": "1", 
        "keepdims": "True"
      }, 
      "inputs": [[212, 0, 0]]
    }, 
    {
      "op": "_not_equal_scalar", 
      "name": "_not_equal_scalar2", 
      "attrs": {"scalar": "108"}, 
      "inputs": [[213, 0, 0]]
    }, 
    {
      "op": "Reshape", 
      "name": "reshape24", 
      "attrs": {"shape": "(0, 1)"}, 
      "inputs": [[214, 0, 0]]
    }, 
    {
      "op": "_rminus_scalar", 
      "name": "_rminusscalar5", 
      "attrs": {"scalar": "1"}, 
      "inputs": [[215, 0, 0]]
    }, 
    {
      "op": "broadcast_mul", 
      "name": "broadcast_mul12", 
      "inputs": [[207, 0, 0], [216, 0, 0]]
    }, 
    {
      "op": "FullyConnected", 
      "name": "gru_40_t2__i2h", 
      "attrs": {"num_hidden": "324"}, 
      "inputs": [[210, 0, 0], [155, 0, 0], [156, 0, 0]]
    }, 
    {
      "op": "SliceChannel", 
      "name": "gru_40_t2__i2h_slice", 
      "attrs": {"num_outputs": "3"}, 
      "inputs": [[218, 0, 0]]
    }, 
    {
      "op": "_rminus_scalar", 
      "name": "_rminusscalar3", 
      "attrs": {"scalar": "1"}, 
      "inputs": [[187, 0, 0]]
    }, 
    {
      "op": "broadcast_mul", 
      "name": "broadcast_mul10", 
      "inputs": [[192, 0, 0], [220, 0, 0]]
    }, 
    {
      "op": "broadcast_mul", 
      "name": "broadcast_mul11", 
      "inputs": [[205, 0, 0], [187, 0, 0]]
    }, 
    {
      "op": "elemwise_add", 
      "name": "_plus7", 
      "inputs": [[221, 0, 0], [222, 0, 0]]
    }, 
    {
      "op": "FullyConnected", 
      "name": "gru_40_t2__h2h", 
      "attrs": {"num_hidden": "324"}, 
      "inputs": [[223, 0, 0], [160, 0, 0], [161, 0, 0]]
    }, 
    {
      "op": "SliceChannel", 
      "name": "gru_40_t2__h2h_slice", 
      "attrs": {"num_outputs": "3"}, 
      "inputs": [[224, 0, 0]]
    }, 
    {
      "op": "elemwise_add", 
      "name": "_plus9", 
      "inputs": [[219, 1, 0], [225, 1, 0]]
    }, 
    {
      "op": "Activation", 
      "name": "gru_40_t2__z_act", 
      "attrs": {"act_type": "sigmoid"}, 
      "inputs": [[226, 0, 0]]
    }, 
    {
      "op": "_rminus_scalar", 
      "name": "_rminusscalar4", 
      "attrs": {"scalar": "1.0"}, 
      "inputs": [[227, 0, 0]]
    }, 
    {
      "op": "elemwise_add", 
      "name": "_plus8", 
      "inputs": [[219, 0, 0], [225, 0, 0]]
    }, 
    {
      "op": "Activation", 
      "name": "gru_40_t2__r_act", 
      "attrs": {"act_type": "sigmoid"}, 
      "inputs": [[229, 0, 0]]
    }, 
    {
      "op": "elemwise_mul", 
      "name": "_mul6", 
      "inputs": [[230, 0, 0], [225, 2, 0]]
    }, 
    {
      "op": "elemwise_add", 
      "name": "_plus10", 
      "inputs": [[219, 2, 0], [231, 0, 0]]
    }, 
    {
      "op": "Activation", 
      "name": "gru_40_t2__h_act", 
      "attrs": {"act_type": "tanh"}, 
      "inputs": [[232, 0, 0]]
    }, 
    {
      "op": "elemwise_mul", 
      "name": "_mul7", 
      "inputs": [[228, 0, 0], [233, 0, 0]]
    }, 
    {
      "op": "elemwise_mul", 
      "name": "_mul8", 
      "inputs": [[227, 0, 0], [223, 0, 0]]
    }, 
    {
      "op": "elemwise_add", 
      "name": "gru_40_t2_out", 
      "inputs": [[234, 0, 0], [235, 0, 0]]
    }, 
    {
      "op": "broadcast_mul", 
      "name": "broadcast_mul13", 
      "inputs": [[236, 0, 0], [215, 0, 0]]
    }, 
    {
      "op": "elemwise_add", 
      "name": "_plus11", 
      "inputs": [[217, 0, 0], [237, 0, 0]]
    }, 
    {
      "op": "Reshape", 
      "name": "reshape25", 
      "attrs": {"shape": "(0, 1, 108)"}, 
      "inputs": [[238, 0, 0]]
    }, 
    {
      "op": "Concat", 
      "name": "concat23", 
      "attrs": {
        "dim": "1", 
        "num_args": "2"
      }, 
      "inputs": [[209, 0, 0], [239, 0, 0]]
    }, 
    {
      "op": "slice_axis", 
      "name": "slice_axis32", 
      "attrs": {
        "axis": "1", 
        "begin": "3", 
        "end": "4"
      }, 
      "inputs": [[153, 0, 0]]
    }, 
    {
      "op": "_equal_scalar", 
      "name": "_equal_scalar3", 
      "attrs": {"scalar": "0"}, 
      "inputs": [[241, 0, 0]]
    }, 
    {
      "op": "Reshape", 
      "name": "reshape26", 
      "attrs": {"shape": "(0, 108)"}, 
      "inputs": [[242, 0, 0]]
    }, 
    {
      "op": "sum", 
      "name": "sum5", 
      "attrs": {
        "axis": "1", 
        "keepdims": "True"
      }, 
      "inputs": [[243, 0, 0]]
    }, 
    {
      "op": "_not_equal_scalar", 
      "name": "_not_equal_scalar3", 
      "attrs": {"scalar": "108"}, 
      "inputs": [[244, 0, 0]]
    }, 
    {
      "op": "Reshape", 
      "name": "reshape27", 
      "attrs": {"shape": "(0, 1)"}, 
      "inputs": [[245, 0, 0]]
    }, 
    {
      "op": "_rminus_scalar", 
      "name": "_rminusscalar8", 
      "attrs": {"scalar": "1"}, 
      "inputs": [[246, 0, 0]]
    }, 
    {
      "op": "broadcast_mul", 
      "name": "broadcast_mul16", 
      "inputs": [[238, 0, 0], [247, 0, 0]]
    }, 
    {
      "op": "FullyConnected", 
      "name": "gru_40_t3__i2h", 
      "attrs": {"num_hidden": "324"}, 
      "inputs": [[241, 0, 0], [155, 0, 0], [156, 0, 0]]
    }, 
    {
      "op": "SliceChannel", 
      "name": "gru_40_t3__i2h_slice", 
      "attrs": {"num_outputs": "3"}, 
      "inputs": [[249, 0, 0]]
    }, 
    {
      "op": "_rminus_scalar", 
      "name": "_rminusscalar6", 
      "attrs": {"scalar": "1"}, 
      "inputs": [[215, 0, 0]]
    }, 
    {
      "op": "broadcast_mul", 
      "name": "broadcast_mul14", 
      "inputs": [[223, 0, 0], [251, 0, 0]]
    }, 
    {
      "op": "broadcast_mul", 
      "name": "broadcast_mul15", 
      "inputs": [[236, 0, 0], [215, 0, 0]]
    }, 
    {
      "op": "elemwise_add", 
      "name": "_plus12", 
      "inputs": [[252, 0, 0], [253, 0, 0]]
    }, 
    {
      "op": "FullyConnected", 
      "name": "gru_40_t3__h2h", 
      "attrs": {"num_hidden": "324"}, 
      "inputs": [[254, 0, 0], [160, 0, 0], [161, 0, 0]]
    }, 
    {
      "op": "SliceChannel", 
      "name": "gru_40_t3__h2h_slice", 
      "attrs": {"num_outputs": "3"}, 
      "inputs": [[255, 0, 0]]
    }, 
    {
      "op": "elemwise_add", 
      "name": "_plus14", 
      "inputs": [[250, 1, 0], [256, 1, 0]]
    }, 
    {
      "op": "Activation", 
      "name": "gru_40_t3__z_act", 
      "attrs": {"act_type": "sigmoid"}, 
      "inputs": [[257, 0, 0]]
    }, 
    {
      "op": "_rminus_scalar", 
      "name": "_rminusscalar7", 
      "attrs": {"scalar": "1.0"}, 
      "inputs": [[258, 0, 0]]
    }, 
    {
      "op": "elemwise_add", 
      "name": "_plus13", 
      "inputs": [[250, 0, 0], [256, 0, 0]]
    }, 
    {
      "op": "Activation", 
      "name": "gru_40_t3__r_act", 
      "attrs": {"act_type": "sigmoid"}, 
      "inputs": [[260, 0, 0]]
    }, 
    {
      "op": "elemwise_mul", 
      "name": "_mul9", 
      "inputs": [[261, 0, 0], [256, 2, 0]]
    }, 
    {
      "op": "elemwise_add", 
      "name": "_plus15", 
      "inputs": [[250, 2, 0], [262, 0, 0]]
    }, 
    {
      "op": "Activation", 
      "name": "gru_40_t3__h_act", 
      "attrs": {"act_type": "tanh"}, 
      "inputs": [[263, 0, 0]]
    }, 
    {
      "op": "elemwise_mul", 
      "name": "_mul10", 
      "inputs": [[259, 0, 0], [264, 0, 0]]
    }, 
    {
      "op": "elemwise_mul", 
      "name": "_mul11", 
      "inputs": [[258, 0, 0], [254, 0, 0]]
    }, 
    {
      "op": "elemwise_add", 
      "name": "gru_40_t3_out", 
      "inputs": [[265, 0, 0], [266, 0, 0]]
    }, 
    {
      "op": "broadcast_mul", 
      "name": "broadcast_mul17", 
      "inputs": [[267, 0, 0], [246, 0, 0]]
    }, 
    {
      "op": "elemwise_add", 
      "name": "_plus16", 
      "inputs": [[248, 0, 0], [268, 0, 0]]
    }, 
    {
      "op": "Reshape", 
      "name": "reshape28", 
      "attrs": {"shape": "(0, 1, 108)"}, 
      "inputs": [[269, 0, 0]]
    }, 
    {
      "op": "Concat", 
      "name": "concat25", 
      "attrs": {
        "dim": "1", 
        "num_args": "2"
      }, 
      "inputs": [[240, 0, 0], [270, 0, 0]]
    }, 
    {
      "op": "slice_axis", 
      "name": "slice_axis33", 
      "attrs": {
        "axis": "1", 
        "begin": "4", 
        "end": "5"
      }, 
      "inputs": [[153, 0, 0]]
    }, 
    {
      "op": "_equal_scalar", 
      "name": "_equal_scalar4", 
      "attrs": {"scalar": "0"}, 
      "inputs": [[272, 0, 0]]
    }, 
    {
      "op": "Reshape", 
      "name": "reshape29", 
      "attrs": {"shape": "(0, 108)"}, 
      "inputs": [[273, 0, 0]]
    }, 
    {
      "op": "sum", 
      "name": "sum6", 
      "attrs": {
        "axis": "1", 
        "keepdims": "True"
      }, 
      "inputs": [[274, 0, 0]]
    }, 
    {
      "op": "_not_equal_scalar", 
      "name": "_not_equal_scalar4", 
      "attrs": {"scalar": "108"}, 
      "inputs": [[275, 0, 0]]
    }, 
    {
      "op": "Reshape", 
      "name": "reshape30", 
      "attrs": {"shape": "(0, 1)"}, 
      "inputs": [[276, 0, 0]]
    }, 
    {
      "op": "_rminus_scalar", 
      "name": "_rminusscalar11", 
      "attrs": {"scalar": "1"}, 
      "inputs": [[277, 0, 0]]
    }, 
    {
      "op": "broadcast_mul", 
      "name": "broadcast_mul20", 
      "inputs": [[269, 0, 0], [278, 0, 0]]
    }, 
    {
      "op": "FullyConnected", 
      "name": "gru_40_t4__i2h", 
      "attrs": {"num_hidden": "324"}, 
      "inputs": [[272, 0, 0], [155, 0, 0], [156, 0, 0]]
    }, 
    {
      "op": "SliceChannel", 
      "name": "gru_40_t4__i2h_slice", 
      "attrs": {"num_outputs": "3"}, 
      "inputs": [[280, 0, 0]]
    }, 
    {
      "op": "_rminus_scalar", 
      "name": "_rminusscalar9", 
      "attrs": {"scalar": "1"}, 
      "inputs": [[246, 0, 0]]
    }, 
    {
      "op": "broadcast_mul", 
      "name": "broadcast_mul18", 
      "inputs": [[254, 0, 0], [282, 0, 0]]
    }, 
    {
      "op": "broadcast_mul", 
      "name": "broadcast_mul19", 
      "inputs": [[267, 0, 0], [246, 0, 0]]
    }, 
    {
      "op": "elemwise_add", 
      "name": "_plus17", 
      "inputs": [[283, 0, 0], [284, 0, 0]]
    }, 
    {
      "op": "FullyConnected", 
      "name": "gru_40_t4__h2h", 
      "attrs": {"num_hidden": "324"}, 
      "inputs": [[285, 0, 0], [160, 0, 0], [161, 0, 0]]
    }, 
    {
      "op": "SliceChannel", 
      "name": "gru_40_t4__h2h_slice", 
      "attrs": {"num_outputs": "3"}, 
      "inputs": [[286, 0, 0]]
    }, 
    {
      "op": "elemwise_add", 
      "name": "_plus19", 
      "inputs": [[281, 1, 0], [287, 1, 0]]
    }, 
    {
      "op": "Activation", 
      "name": "gru_40_t4__z_act", 
      "attrs": {"act_type": "sigmoid"}, 
      "inputs": [[288, 0, 0]]
    }, 
    {
      "op": "_rminus_scalar", 
      "name": "_rminusscalar10", 
      "attrs": {"scalar": "1.0"}, 
      "inputs": [[289, 0, 0]]
    }, 
    {
      "op": "elemwise_add", 
      "name": "_plus18", 
      "inputs": [[281, 0, 0], [287, 0, 0]]
    }, 
    {
      "op": "Activation", 
      "name": "gru_40_t4__r_act", 
      "attrs": {"act_type": "sigmoid"}, 
      "inputs": [[291, 0, 0]]
    }, 
    {
      "op": "elemwise_mul", 
      "name": "_mul12", 
      "inputs": [[292, 0, 0], [287, 2, 0]]
    }, 
    {
      "op": "elemwise_add", 
      "name": "_plus20", 
      "inputs": [[281, 2, 0], [293, 0, 0]]
    }, 
    {
      "op": "Activation", 
      "name": "gru_40_t4__h_act", 
      "attrs": {"act_type": "tanh"}, 
      "inputs": [[294, 0, 0]]
    }, 
    {
      "op": "elemwise_mul", 
      "name": "_mul13", 
      "inputs": [[290, 0, 0], [295, 0, 0]]
    }, 
    {
      "op": "elemwise_mul", 
      "name": "_mul14", 
      "inputs": [[289, 0, 0], [285, 0, 0]]
    }, 
    {
      "op": "elemwise_add", 
      "name": "gru_40_t4_out", 
      "inputs": [[296, 0, 0], [297, 0, 0]]
    }, 
    {
      "op": "broadcast_mul", 
      "name": "broadcast_mul21", 
      "inputs": [[298, 0, 0], [277, 0, 0]]
    }, 
    {
      "op": "elemwise_add", 
      "name": "_plus21", 
      "inputs": [[279, 0, 0], [299, 0, 0]]
    }, 
    {
      "op": "Reshape", 
      "name": "reshape31", 
      "attrs": {"shape": "(0, 1, 108)"}, 
      "inputs": [[300, 0, 0]]
    }, 
    {
      "op": "Concat", 
      "name": "concat27", 
      "attrs": {
        "dim": "1", 
        "num_args": "2"
      }, 
      "inputs": [[271, 0, 0], [301, 0, 0]]
    }, 
    {
      "op": "slice_axis", 
      "name": "slice_axis34", 
      "attrs": {
        "axis": "1", 
        "begin": "5", 
        "end": "6"
      }, 
      "inputs": [[153, 0, 0]]
    }, 
    {
      "op": "_equal_scalar", 
      "name": "_equal_scalar5", 
      "attrs": {"scalar": "0"}, 
      "inputs": [[303, 0, 0]]
    }, 
    {
      "op": "Reshape", 
      "name": "reshape32", 
      "attrs": {"shape": "(0, 108)"}, 
      "inputs": [[304, 0, 0]]
    }, 
    {
      "op": "sum", 
      "name": "sum7", 
      "attrs": {
        "axis": "1", 
        "keepdims": "True"
      }, 
      "inputs": [[305, 0, 0]]
    }, 
    {
      "op": "_not_equal_scalar", 
      "name": "_not_equal_scalar5", 
      "attrs": {"scalar": "108"}, 
      "inputs": [[306, 0, 0]]
    }, 
    {
      "op": "Reshape", 
      "name": "reshape33", 
      "attrs": {"shape": "(0, 1)"}, 
      "inputs": [[307, 0, 0]]
    }, 
    {
      "op": "_rminus_scalar", 
      "name": "_rminusscalar14", 
      "attrs": {"scalar": "1"}, 
      "inputs": [[308, 0, 0]]
    }, 
    {
      "op": "broadcast_mul", 
      "name": "broadcast_mul24", 
      "inputs": [[300, 0, 0], [309, 0, 0]]
    }, 
    {
      "op": "FullyConnected", 
      "name": "gru_40_t5__i2h", 
      "attrs": {"num_hidden": "324"}, 
      "inputs": [[303, 0, 0], [155, 0, 0], [156, 0, 0]]
    }, 
    {
      "op": "SliceChannel", 
      "name": "gru_40_t5__i2h_slice", 
      "attrs": {"num_outputs": "3"}, 
      "inputs": [[311, 0, 0]]
    }, 
    {
      "op": "_rminus_scalar", 
      "name": "_rminusscalar12", 
      "attrs": {"scalar": "1"}, 
      "inputs": [[277, 0, 0]]
    }, 
    {
      "op": "broadcast_mul", 
      "name": "broadcast_mul22", 
      "inputs": [[285, 0, 0], [313, 0, 0]]
    }, 
    {
      "op": "broadcast_mul", 
      "name": "broadcast_mul23", 
      "inputs": [[298, 0, 0], [277, 0, 0]]
    }, 
    {
      "op": "elemwise_add", 
      "name": "_plus22", 
      "inputs": [[314, 0, 0], [315, 0, 0]]
    }, 
    {
      "op": "FullyConnected", 
      "name": "gru_40_t5__h2h", 
      "attrs": {"num_hidden": "324"}, 
      "inputs": [[316, 0, 0], [160, 0, 0], [161, 0, 0]]
    }, 
    {
      "op": "SliceChannel", 
      "name": "gru_40_t5__h2h_slice", 
      "attrs": {"num_outputs": "3"}, 
      "inputs": [[317, 0, 0]]
    }, 
    {
      "op": "elemwise_add", 
      "name": "_plus24", 
      "inputs": [[312, 1, 0], [318, 1, 0]]
    }, 
    {
      "op": "Activation", 
      "name": "gru_40_t5__z_act", 
      "attrs": {"act_type": "sigmoid"}, 
      "inputs": [[319, 0, 0]]
    }, 
    {
      "op": "_rminus_scalar", 
      "name": "_rminusscalar13", 
      "attrs": {"scalar": "1.0"}, 
      "inputs": [[320, 0, 0]]
    }, 
    {
      "op": "elemwise_add", 
      "name": "_plus23", 
      "inputs": [[312, 0, 0], [318, 0, 0]]
    }, 
    {
      "op": "Activation", 
      "name": "gru_40_t5__r_act", 
      "attrs": {"act_type": "sigmoid"}, 
      "inputs": [[322, 0, 0]]
    }, 
    {
      "op": "elemwise_mul", 
      "name": "_mul15", 
      "inputs": [[323, 0, 0], [318, 2, 0]]
    }, 
    {
      "op": "elemwise_add", 
      "name": "_plus25", 
      "inputs": [[312, 2, 0], [324, 0, 0]]
    }, 
    {
      "op": "Activation", 
      "name": "gru_40_t5__h_act", 
      "attrs": {"act_type": "tanh"}, 
      "inputs": [[325, 0, 0]]
    }, 
    {
      "op": "elemwise_mul", 
      "name": "_mul16", 
      "inputs": [[321, 0, 0], [326, 0, 0]]
    }, 
    {
      "op": "elemwise_mul", 
      "name": "_mul17", 
      "inputs": [[320, 0, 0], [316, 0, 0]]
    }, 
    {
      "op": "elemwise_add", 
      "name": "gru_40_t5_out", 
      "inputs": [[327, 0, 0], [328, 0, 0]]
    }, 
    {
      "op": "broadcast_mul", 
      "name": "broadcast_mul25", 
      "inputs": [[329, 0, 0], [308, 0, 0]]
    }, 
    {
      "op": "elemwise_add", 
      "name": "_plus26", 
      "inputs": [[310, 0, 0], [330, 0, 0]]
    }, 
    {
      "op": "Reshape", 
      "name": "reshape34", 
      "attrs": {"shape": "(0, 1, 108)"}, 
      "inputs": [[331, 0, 0]]
    }, 
    {
      "op": "Concat", 
      "name": "concat29", 
      "attrs": {
        "dim": "1", 
        "num_args": "2"
      }, 
      "inputs": [[302, 0, 0], [332, 0, 0]]
    }, 
    {
      "op": "slice_axis", 
      "name": "slice_axis35", 
      "attrs": {
        "axis": "1", 
        "begin": "6", 
        "end": "7"
      }, 
      "inputs": [[153, 0, 0]]
    }, 
    {
      "op": "_equal_scalar", 
      "name": "_equal_scalar6", 
      "attrs": {"scalar": "0"}, 
      "inputs": [[334, 0, 0]]
    }, 
    {
      "op": "Reshape", 
      "name": "reshape35", 
      "attrs": {"shape": "(0, 108)"}, 
      "inputs": [[335, 0, 0]]
    }, 
    {
      "op": "sum", 
      "name": "sum8", 
      "attrs": {
        "axis": "1", 
        "keepdims": "True"
      }, 
      "inputs": [[336, 0, 0]]
    }, 
    {
      "op": "_not_equal_scalar", 
      "name": "_not_equal_scalar6", 
      "attrs": {"scalar": "108"}, 
      "inputs": [[337, 0, 0]]
    }, 
    {
      "op": "Reshape", 
      "name": "reshape36", 
      "attrs": {"shape": "(0, 1)"}, 
      "inputs": [[338, 0, 0]]
    }, 
    {
      "op": "_rminus_scalar", 
      "name": "_rminusscalar17", 
      "attrs": {"scalar": "1"}, 
      "inputs": [[339, 0, 0]]
    }, 
    {
      "op": "broadcast_mul", 
      "name": "broadcast_mul28", 
      "inputs": [[331, 0, 0], [340, 0, 0]]
    }, 
    {
      "op": "FullyConnected", 
      "name": "gru_40_t6__i2h", 
      "attrs": {"num_hidden": "324"}, 
      "inputs": [[334, 0, 0], [155, 0, 0], [156, 0, 0]]
    }, 
    {
      "op": "SliceChannel", 
      "name": "gru_40_t6__i2h_slice", 
      "attrs": {"num_outputs": "3"}, 
      "inputs": [[342, 0, 0]]
    }, 
    {
      "op": "_rminus_scalar", 
      "name": "_rminusscalar15", 
      "attrs": {"scalar": "1"}, 
      "inputs": [[308, 0, 0]]
    }, 
    {
      "op": "broadcast_mul", 
      "name": "broadcast_mul26", 
      "inputs": [[316, 0, 0], [344, 0, 0]]
    }, 
    {
      "op": "broadcast_mul", 
      "name": "broadcast_mul27", 
      "inputs": [[329, 0, 0], [308, 0, 0]]
    }, 
    {
      "op": "elemwise_add", 
      "name": "_plus27", 
      "inputs": [[345, 0, 0], [346, 0, 0]]
    }, 
    {
      "op": "FullyConnected", 
      "name": "gru_40_t6__h2h", 
      "attrs": {"num_hidden": "324"}, 
      "inputs": [[347, 0, 0], [160, 0, 0], [161, 0, 0]]
    }, 
    {
      "op": "SliceChannel", 
      "name": "gru_40_t6__h2h_slice", 
      "attrs": {"num_outputs": "3"}, 
      "inputs": [[348, 0, 0]]
    }, 
    {
      "op": "elemwise_add", 
      "name": "_plus29", 
      "inputs": [[343, 1, 0], [349, 1, 0]]
    }, 
    {
      "op": "Activation", 
      "name": "gru_40_t6__z_act", 
      "attrs": {"act_type": "sigmoid"}, 
      "inputs": [[350, 0, 0]]
    }, 
    {
      "op": "_rminus_scalar", 
      "name": "_rminusscalar16", 
      "attrs": {"scalar": "1.0"}, 
      "inputs": [[351, 0, 0]]
    }, 
    {
      "op": "elemwise_add", 
      "name": "_plus28", 
      "inputs": [[343, 0, 0], [349, 0, 0]]
    }, 
    {
      "op": "Activation", 
      "name": "gru_40_t6__r_act", 
      "attrs": {"act_type": "sigmoid"}, 
      "inputs": [[353, 0, 0]]
    }, 
    {
      "op": "elemwise_mul", 
      "name": "_mul18", 
      "inputs": [[354, 0, 0], [349, 2, 0]]
    }, 
    {
      "op": "elemwise_add", 
      "name": "_plus30", 
      "inputs": [[343, 2, 0], [355, 0, 0]]
    }, 
    {
      "op": "Activation", 
      "name": "gru_40_t6__h_act", 
      "attrs": {"act_type": "tanh"}, 
      "inputs": [[356, 0, 0]]
    }, 
    {
      "op": "elemwise_mul", 
      "name": "_mul19", 
      "inputs": [[352, 0, 0], [357, 0, 0]]
    }, 
    {
      "op": "elemwise_mul", 
      "name": "_mul20", 
      "inputs": [[351, 0, 0], [347, 0, 0]]
    }, 
    {
      "op": "elemwise_add", 
      "name": "gru_40_t6_out", 
      "inputs": [[358, 0, 0], [359, 0, 0]]
    }, 
    {
      "op": "broadcast_mul", 
      "name": "broadcast_mul29", 
      "inputs": [[360, 0, 0], [339, 0, 0]]
    }, 
    {
      "op": "elemwise_add", 
      "name": "_plus31", 
      "inputs": [[341, 0, 0], [361, 0, 0]]
    }, 
    {
      "op": "Reshape", 
      "name": "reshape37", 
      "attrs": {"shape": "(0, 1, 108)"}, 
      "inputs": [[362, 0, 0]]
    }, 
    {
      "op": "Concat", 
      "name": "concat31", 
      "attrs": {
        "dim": "1", 
        "num_args": "2"
      }, 
      "inputs": [[333, 0, 0], [363, 0, 0]]
    }, 
    {
      "op": "slice_axis", 
      "name": "slice_axis36", 
      "attrs": {
        "axis": "1", 
        "begin": "7", 
        "end": "8"
      }, 
      "inputs": [[153, 0, 0]]
    }, 
    {
      "op": "_equal_scalar", 
      "name": "_equal_scalar7", 
      "attrs": {"scalar": "0"}, 
      "inputs": [[365, 0, 0]]
    }, 
    {
      "op": "Reshape", 
      "name": "reshape38", 
      "attrs": {"shape": "(0, 108)"}, 
      "inputs": [[366, 0, 0]]
    }, 
    {
      "op": "sum", 
      "name": "sum9", 
      "attrs": {
        "axis": "1", 
        "keepdims": "True"
      }, 
      "inputs": [[367, 0, 0]]
    }, 
    {
      "op": "_not_equal_scalar", 
      "name": "_not_equal_scalar7", 
      "attrs": {"scalar": "108"}, 
      "inputs": [[368, 0, 0]]
    }, 
    {
      "op": "Reshape", 
      "name": "reshape39", 
      "attrs": {"shape": "(0, 1)"}, 
      "inputs": [[369, 0, 0]]
    }, 
    {
      "op": "_rminus_scalar", 
      "name": "_rminusscalar20", 
      "attrs": {"scalar": "1"}, 
      "inputs": [[370, 0, 0]]
    }, 
    {
      "op": "broadcast_mul", 
      "name": "broadcast_mul32", 
      "inputs": [[362, 0, 0], [371, 0, 0]]
    }, 
    {
      "op": "FullyConnected", 
      "name": "gru_40_t7__i2h", 
      "attrs": {"num_hidden": "324"}, 
      "inputs": [[365, 0, 0], [155, 0, 0], [156, 0, 0]]
    }, 
    {
      "op": "SliceChannel", 
      "name": "gru_40_t7__i2h_slice", 
      "attrs": {"num_outputs": "3"}, 
      "inputs": [[373, 0, 0]]
    }, 
    {
      "op": "_rminus_scalar", 
      "name": "_rminusscalar18", 
      "attrs": {"scalar": "1"}, 
      "inputs": [[339, 0, 0]]
    }, 
    {
      "op": "broadcast_mul", 
      "name": "broadcast_mul30", 
      "inputs": [[347, 0, 0], [375, 0, 0]]
    }, 
    {
      "op": "broadcast_mul", 
      "name": "broadcast_mul31", 
      "inputs": [[360, 0, 0], [339, 0, 0]]
    }, 
    {
      "op": "elemwise_add", 
      "name": "_plus32", 
      "inputs": [[376, 0, 0], [377, 0, 0]]
    }, 
    {
      "op": "FullyConnected", 
      "name": "gru_40_t7__h2h", 
      "attrs": {"num_hidden": "324"}, 
      "inputs": [[378, 0, 0], [160, 0, 0], [161, 0, 0]]
    }, 
    {
      "op": "SliceChannel", 
      "name": "gru_40_t7__h2h_slice", 
      "attrs": {"num_outputs": "3"}, 
      "inputs": [[379, 0, 0]]
    }, 
    {
      "op": "elemwise_add", 
      "name": "_plus34", 
      "inputs": [[374, 1, 0], [380, 1, 0]]
    }, 
    {
      "op": "Activation", 
      "name": "gru_40_t7__z_act", 
      "attrs": {"act_type": "sigmoid"}, 
      "inputs": [[381, 0, 0]]
    }, 
    {
      "op": "_rminus_scalar", 
      "name": "_rminusscalar19", 
      "attrs": {"scalar": "1.0"}, 
      "inputs": [[382, 0, 0]]
    }, 
    {
      "op": "elemwise_add", 
      "name": "_plus33", 
      "inputs": [[374, 0, 0], [380, 0, 0]]
    }, 
    {
      "op": "Activation", 
      "name": "gru_40_t7__r_act", 
      "attrs": {"act_type": "sigmoid"}, 
      "inputs": [[384, 0, 0]]
    }, 
    {
      "op": "elemwise_mul", 
      "name": "_mul21", 
      "inputs": [[385, 0, 0], [380, 2, 0]]
    }, 
    {
      "op": "elemwise_add", 
      "name": "_plus35", 
      "inputs": [[374, 2, 0], [386, 0, 0]]
    }, 
    {
      "op": "Activation", 
      "name": "gru_40_t7__h_act", 
      "attrs": {"act_type": "tanh"}, 
      "inputs": [[387, 0, 0]]
    }, 
    {
      "op": "elemwise_mul", 
      "name": "_mul22", 
      "inputs": [[383, 0, 0], [388, 0, 0]]
    }, 
    {
      "op": "elemwise_mul", 
      "name": "_mul23", 
      "inputs": [[382, 0, 0], [378, 0, 0]]
    }, 
    {
      "op": "elemwise_add", 
      "name": "gru_40_t7_out", 
      "inputs": [[389, 0, 0], [390, 0, 0]]
    }, 
    {
      "op": "broadcast_mul", 
      "name": "broadcast_mul33", 
      "inputs": [[391, 0, 0], [370, 0, 0]]
    }, 
    {
      "op": "elemwise_add", 
      "name": "_plus36", 
      "inputs": [[372, 0, 0], [392, 0, 0]]
    }, 
    {
      "op": "Reshape", 
      "name": "reshape40", 
      "attrs": {"shape": "(0, 1, 108)"}, 
      "inputs": [[393, 0, 0]]
    }, 
    {
      "op": "Concat", 
      "name": "concat33", 
      "attrs": {
        "dim": "1", 
        "num_args": "2"
      }, 
      "inputs": [[364, 0, 0], [394, 0, 0]]
    }, 
    {
      "op": "slice_axis", 
      "name": "slice_axis37", 
      "attrs": {
        "axis": "1", 
        "begin": "8", 
        "end": "9"
      }, 
      "inputs": [[153, 0, 0]]
    }, 
    {
      "op": "_equal_scalar", 
      "name": "_equal_scalar8", 
      "attrs": {"scalar": "0"}, 
      "inputs": [[396, 0, 0]]
    }, 
    {
      "op": "Reshape", 
      "name": "reshape41", 
      "attrs": {"shape": "(0, 108)"}, 
      "inputs": [[397, 0, 0]]
    }, 
    {
      "op": "sum", 
      "name": "sum10", 
      "attrs": {
        "axis": "1", 
        "keepdims": "True"
      }, 
      "inputs": [[398, 0, 0]]
    }, 
    {
      "op": "_not_equal_scalar", 
      "name": "_not_equal_scalar8", 
      "attrs": {"scalar": "108"}, 
      "inputs": [[399, 0, 0]]
    }, 
    {
      "op": "Reshape", 
      "name": "reshape42", 
      "attrs": {"shape": "(0, 1)"}, 
      "inputs": [[400, 0, 0]]
    }, 
    {
      "op": "_rminus_scalar", 
      "name": "_rminusscalar23", 
      "attrs": {"scalar": "1"}, 
      "inputs": [[401, 0, 0]]
    }, 
    {
      "op": "broadcast_mul", 
      "name": "broadcast_mul36", 
      "inputs": [[393, 0, 0], [402, 0, 0]]
    }, 
    {
      "op": "FullyConnected", 
      "name": "gru_40_t8__i2h", 
      "attrs": {"num_hidden": "324"}, 
      "inputs": [[396, 0, 0], [155, 0, 0], [156, 0, 0]]
    }, 
    {
      "op": "SliceChannel", 
      "name": "gru_40_t8__i2h_slice", 
      "attrs": {"num_outputs": "3"}, 
      "inputs": [[404, 0, 0]]
    }, 
    {
      "op": "_rminus_scalar", 
      "name": "_rminusscalar21", 
      "attrs": {"scalar": "1"}, 
      "inputs": [[370, 0, 0]]
    }, 
    {
      "op": "broadcast_mul", 
      "name": "broadcast_mul34", 
      "inputs": [[378, 0, 0], [406, 0, 0]]
    }, 
    {
      "op": "broadcast_mul", 
      "name": "broadcast_mul35", 
      "inputs": [[391, 0, 0], [370, 0, 0]]
    }, 
    {
      "op": "elemwise_add", 
      "name": "_plus37", 
      "inputs": [[407, 0, 0], [408, 0, 0]]
    }, 
    {
      "op": "FullyConnected", 
      "name": "gru_40_t8__h2h", 
      "attrs": {"num_hidden": "324"}, 
      "inputs": [[409, 0, 0], [160, 0, 0], [161, 0, 0]]
    }, 
    {
      "op": "SliceChannel", 
      "name": "gru_40_t8__h2h_slice", 
      "attrs": {"num_outputs": "3"}, 
      "inputs": [[410, 0, 0]]
    }, 
    {
      "op": "elemwise_add", 
      "name": "_plus39", 
      "inputs": [[405, 1, 0], [411, 1, 0]]
    }, 
    {
      "op": "Activation", 
      "name": "gru_40_t8__z_act", 
      "attrs": {"act_type": "sigmoid"}, 
      "inputs": [[412, 0, 0]]
    }, 
    {
      "op": "_rminus_scalar", 
      "name": "_rminusscalar22", 
      "attrs": {"scalar": "1.0"}, 
      "inputs": [[413, 0, 0]]
    }, 
    {
      "op": "elemwise_add", 
      "name": "_plus38", 
      "inputs": [[405, 0, 0], [411, 0, 0]]
    }, 
    {
      "op": "Activation", 
      "name": "gru_40_t8__r_act", 
      "attrs": {"act_type": "sigmoid"}, 
      "inputs": [[415, 0, 0]]
    }, 
    {
      "op": "elemwise_mul", 
      "name": "_mul24", 
      "inputs": [[416, 0, 0], [411, 2, 0]]
    }, 
    {
      "op": "elemwise_add", 
      "name": "_plus40", 
      "inputs": [[405, 2, 0], [417, 0, 0]]
    }, 
    {
      "op": "Activation", 
      "name": "gru_40_t8__h_act", 
      "attrs": {"act_type": "tanh"}, 
      "inputs": [[418, 0, 0]]
    }, 
    {
      "op": "elemwise_mul", 
      "name": "_mul25", 
      "inputs": [[414, 0, 0], [419, 0, 0]]
    }, 
    {
      "op": "elemwise_mul", 
      "name": "_mul26", 
      "inputs": [[413, 0, 0], [409, 0, 0]]
    }, 
    {
      "op": "elemwise_add", 
      "name": "gru_40_t8_out", 
      "inputs": [[420, 0, 0], [421, 0, 0]]
    }, 
    {
      "op": "broadcast_mul", 
      "name": "broadcast_mul37", 
      "inputs": [[422, 0, 0], [401, 0, 0]]
    }, 
    {
      "op": "elemwise_add", 
      "name": "_plus41", 
      "inputs": [[403, 0, 0], [423, 0, 0]]
    }, 
    {
      "op": "Reshape", 
      "name": "reshape43", 
      "attrs": {"shape": "(0, 1, 108)"}, 
      "inputs": [[424, 0, 0]]
    }, 
    {
      "op": "Concat", 
      "name": "concat35", 
      "attrs": {
        "dim": "1", 
        "num_args": "2"
      }, 
      "inputs": [[395, 0, 0], [425, 0, 0]]
    }, 
    {
      "op": "slice_axis", 
      "name": "slice_axis38", 
      "attrs": {
        "axis": "1", 
        "begin": "9", 
        "end": "10"
      }, 
      "inputs": [[153, 0, 0]]
    }, 
    {
      "op": "_equal_scalar", 
      "name": "_equal_scalar9", 
      "attrs": {"scalar": "0"}, 
      "inputs": [[427, 0, 0]]
    }, 
    {
      "op": "Reshape", 
      "name": "reshape44", 
      "attrs": {"shape": "(0, 108)"}, 
      "inputs": [[428, 0, 0]]
    }, 
    {
      "op": "sum", 
      "name": "sum11", 
      "attrs": {
        "axis": "1", 
        "keepdims": "True"
      }, 
      "inputs": [[429, 0, 0]]
    }, 
    {
      "op": "_not_equal_scalar", 
      "name": "_not_equal_scalar9", 
      "attrs": {"scalar": "108"}, 
      "inputs": [[430, 0, 0]]
    }, 
    {
      "op": "Reshape", 
      "name": "reshape45", 
      "attrs": {"shape": "(0, 1)"}, 
      "inputs": [[431, 0, 0]]
    }, 
    {
      "op": "_rminus_scalar", 
      "name": "_rminusscalar26", 
      "attrs": {"scalar": "1"}, 
      "inputs": [[432, 0, 0]]
    }, 
    {
      "op": "broadcast_mul", 
      "name": "broadcast_mul40", 
      "inputs": [[424, 0, 0], [433, 0, 0]]
    }, 
    {
      "op": "FullyConnected", 
      "name": "gru_40_t9__i2h", 
      "attrs": {"num_hidden": "324"}, 
      "inputs": [[427, 0, 0], [155, 0, 0], [156, 0, 0]]
    }, 
    {
      "op": "SliceChannel", 
      "name": "gru_40_t9__i2h_slice", 
      "attrs": {"num_outputs": "3"}, 
      "inputs": [[435, 0, 0]]
    }, 
    {
      "op": "_rminus_scalar", 
      "name": "_rminusscalar24", 
      "attrs": {"scalar": "1"}, 
      "inputs": [[401, 0, 0]]
    }, 
    {
      "op": "broadcast_mul", 
      "name": "broadcast_mul38", 
      "inputs": [[409, 0, 0], [437, 0, 0]]
    }, 
    {
      "op": "broadcast_mul", 
      "name": "broadcast_mul39", 
      "inputs": [[422, 0, 0], [401, 0, 0]]
    }, 
    {
      "op": "elemwise_add", 
      "name": "_plus42", 
      "inputs": [[438, 0, 0], [439, 0, 0]]
    }, 
    {
      "op": "FullyConnected", 
      "name": "gru_40_t9__h2h", 
      "attrs": {"num_hidden": "324"}, 
      "inputs": [[440, 0, 0], [160, 0, 0], [161, 0, 0]]
    }, 
    {
      "op": "SliceChannel", 
      "name": "gru_40_t9__h2h_slice", 
      "attrs": {"num_outputs": "3"}, 
      "inputs": [[441, 0, 0]]
    }, 
    {
      "op": "elemwise_add", 
      "name": "_plus44", 
      "inputs": [[436, 1, 0], [442, 1, 0]]
    }, 
    {
      "op": "Activation", 
      "name": "gru_40_t9__z_act", 
      "attrs": {"act_type": "sigmoid"}, 
      "inputs": [[443, 0, 0]]
    }, 
    {
      "op": "_rminus_scalar", 
      "name": "_rminusscalar25", 
      "attrs": {"scalar": "1.0"}, 
      "inputs": [[444, 0, 0]]
    }, 
    {
      "op": "elemwise_add", 
      "name": "_plus43", 
      "inputs": [[436, 0, 0], [442, 0, 0]]
    }, 
    {
      "op": "Activation", 
      "name": "gru_40_t9__r_act", 
      "attrs": {"act_type": "sigmoid"}, 
      "inputs": [[446, 0, 0]]
    }, 
    {
      "op": "elemwise_mul", 
      "name": "_mul27", 
      "inputs": [[447, 0, 0], [442, 2, 0]]
    }, 
    {
      "op": "elemwise_add", 
      "name": "_plus45", 
      "inputs": [[436, 2, 0], [448, 0, 0]]
    }, 
    {
      "op": "Activation", 
      "name": "gru_40_t9__h_act", 
      "attrs": {"act_type": "tanh"}, 
      "inputs": [[449, 0, 0]]
    }, 
    {
      "op": "elemwise_mul", 
      "name": "_mul28", 
      "inputs": [[445, 0, 0], [450, 0, 0]]
    }, 
    {
      "op": "elemwise_mul", 
      "name": "_mul29", 
      "inputs": [[444, 0, 0], [440, 0, 0]]
    }, 
    {
      "op": "elemwise_add", 
      "name": "gru_40_t9_out", 
      "inputs": [[451, 0, 0], [452, 0, 0]]
    }, 
    {
      "op": "broadcast_mul", 
      "name": "broadcast_mul41", 
      "inputs": [[453, 0, 0], [432, 0, 0]]
    }, 
    {
      "op": "elemwise_add", 
      "name": "_plus46", 
      "inputs": [[434, 0, 0], [454, 0, 0]]
    }, 
    {
      "op": "Reshape", 
      "name": "reshape46", 
      "attrs": {"shape": "(0, 1, 108)"}, 
      "inputs": [[455, 0, 0]]
    }, 
    {
      "op": "Concat", 
      "name": "concat37", 
      "attrs": {
        "dim": "1", 
        "num_args": "2"
      }, 
      "inputs": [[426, 0, 0], [456, 0, 0]]
    }, 
    {
      "op": "slice_axis", 
      "name": "slice_axis39", 
      "attrs": {
        "axis": "1", 
        "begin": "10", 
        "end": "11"
      }, 
      "inputs": [[153, 0, 0]]
    }, 
    {
      "op": "_equal_scalar", 
      "name": "_equal_scalar10", 
      "attrs": {"scalar": "0"}, 
      "inputs": [[458, 0, 0]]
    }, 
    {
      "op": "Reshape", 
      "name": "reshape47", 
      "attrs": {"shape": "(0, 108)"}, 
      "inputs": [[459, 0, 0]]
    }, 
    {
      "op": "sum", 
      "name": "sum12", 
      "attrs": {
        "axis": "1", 
        "keepdims": "True"
      }, 
      "inputs": [[460, 0, 0]]
    }, 
    {
      "op": "_not_equal_scalar", 
      "name": "_not_equal_scalar10", 
      "attrs": {"scalar": "108"}, 
      "inputs": [[461, 0, 0]]
    }, 
    {
      "op": "Reshape", 
      "name": "reshape48", 
      "attrs": {"shape": "(0, 1)"}, 
      "inputs": [[462, 0, 0]]
    }, 
    {
      "op": "_rminus_scalar", 
      "name": "_rminusscalar29", 
      "attrs": {"scalar": "1"}, 
      "inputs": [[463, 0, 0]]
    }, 
    {
      "op": "broadcast_mul", 
      "name": "broadcast_mul44", 
      "inputs": [[455, 0, 0], [464, 0, 0]]
    }, 
    {
      "op": "FullyConnected", 
      "name": "gru_40_t10__i2h", 
      "attrs": {"num_hidden": "324"}, 
      "inputs": [[458, 0, 0], [155, 0, 0], [156, 0, 0]]
    }, 
    {
      "op": "SliceChannel", 
      "name": "gru_40_t10__i2h_slice", 
      "attrs": {"num_outputs": "3"}, 
      "inputs": [[466, 0, 0]]
    }, 
    {
      "op": "_rminus_scalar", 
      "name": "_rminusscalar27", 
      "attrs": {"scalar": "1"}, 
      "inputs": [[432, 0, 0]]
    }, 
    {
      "op": "broadcast_mul", 
      "name": "broadcast_mul42", 
      "inputs": [[440, 0, 0], [468, 0, 0]]
    }, 
    {
      "op": "broadcast_mul", 
      "name": "broadcast_mul43", 
      "inputs": [[453, 0, 0], [432, 0, 0]]
    }, 
    {
      "op": "elemwise_add", 
      "name": "_plus47", 
      "inputs": [[469, 0, 0], [470, 0, 0]]
    }, 
    {
      "op": "FullyConnected", 
      "name": "gru_40_t10__h2h", 
      "attrs": {"num_hidden": "324"}, 
      "inputs": [[471, 0, 0], [160, 0, 0], [161, 0, 0]]
    }, 
    {
      "op": "SliceChannel", 
      "name": "gru_40_t10__h2h_slice", 
      "attrs": {"num_outputs": "3"}, 
      "inputs": [[472, 0, 0]]
    }, 
    {
      "op": "elemwise_add", 
      "name": "_plus49", 
      "inputs": [[467, 1, 0], [473, 1, 0]]
    }, 
    {
      "op": "Activation", 
      "name": "gru_40_t10__z_act", 
      "attrs": {"act_type": "sigmoid"}, 
      "inputs": [[474, 0, 0]]
    }, 
    {
      "op": "_rminus_scalar", 
      "name": "_rminusscalar28", 
      "attrs": {"scalar": "1.0"}, 
      "inputs": [[475, 0, 0]]
    }, 
    {
      "op": "elemwise_add", 
      "name": "_plus48", 
      "inputs": [[467, 0, 0], [473, 0, 0]]
    }, 
    {
      "op": "Activation", 
      "name": "gru_40_t10__r_act", 
      "attrs": {"act_type": "sigmoid"}, 
      "inputs": [[477, 0, 0]]
    }, 
    {
      "op": "elemwise_mul", 
      "name": "_mul30", 
      "inputs": [[478, 0, 0], [473, 2, 0]]
    }, 
    {
      "op": "elemwise_add", 
      "name": "_plus50", 
      "inputs": [[467, 2, 0], [479, 0, 0]]
    }, 
    {
      "op": "Activation", 
      "name": "gru_40_t10__h_act", 
      "attrs": {"act_type": "tanh"}, 
      "inputs": [[480, 0, 0]]
    }, 
    {
      "op": "elemwise_mul", 
      "name": "_mul31", 
      "inputs": [[476, 0, 0], [481, 0, 0]]
    }, 
    {
      "op": "elemwise_mul", 
      "name": "_mul32", 
      "inputs": [[475, 0, 0], [471, 0, 0]]
    }, 
    {
      "op": "elemwise_add", 
      "name": "gru_40_t10_out", 
      "inputs": [[482, 0, 0], [483, 0, 0]]
    }, 
    {
      "op": "broadcast_mul", 
      "name": "broadcast_mul45", 
      "inputs": [[484, 0, 0], [463, 0, 0]]
    }, 
    {
      "op": "elemwise_add", 
      "name": "_plus51", 
      "inputs": [[465, 0, 0], [485, 0, 0]]
    }, 
    {
      "op": "Reshape", 
      "name": "reshape49", 
      "attrs": {"shape": "(0, 1, 108)"}, 
      "inputs": [[486, 0, 0]]
    }, 
    {
      "op": "Concat", 
      "name": "concat39", 
      "attrs": {
        "dim": "1", 
        "num_args": "2"
      }, 
      "inputs": [[457, 0, 0], [487, 0, 0]]
    }, 
    {
      "op": "slice_axis", 
      "name": "slice_axis40", 
      "attrs": {
        "axis": "1", 
        "begin": "11", 
        "end": "12"
      }, 
      "inputs": [[153, 0, 0]]
    }, 
    {
      "op": "_equal_scalar", 
      "name": "_equal_scalar11", 
      "attrs": {"scalar": "0"}, 
      "inputs": [[489, 0, 0]]
    }, 
    {
      "op": "Reshape", 
      "name": "reshape50", 
      "attrs": {"shape": "(0, 108)"}, 
      "inputs": [[490, 0, 0]]
    }, 
    {
      "op": "sum", 
      "name": "sum13", 
      "attrs": {
        "axis": "1", 
        "keepdims": "True"
      }, 
      "inputs": [[491, 0, 0]]
    }, 
    {
      "op": "_not_equal_scalar", 
      "name": "_not_equal_scalar11", 
      "attrs": {"scalar": "108"}, 
      "inputs": [[492, 0, 0]]
    }, 
    {
      "op": "Reshape", 
      "name": "reshape51", 
      "attrs": {"shape": "(0, 1)"}, 
      "inputs": [[493, 0, 0]]
    }, 
    {
      "op": "_rminus_scalar", 
      "name": "_rminusscalar32", 
      "attrs": {"scalar": "1"}, 
      "inputs": [[494, 0, 0]]
    }, 
    {
      "op": "broadcast_mul", 
      "name": "broadcast_mul48", 
      "inputs": [[486, 0, 0], [495, 0, 0]]
    }, 
    {
      "op": "FullyConnected", 
      "name": "gru_40_t11__i2h", 
      "attrs": {"num_hidden": "324"}, 
      "inputs": [[489, 0, 0], [155, 0, 0], [156, 0, 0]]
    }, 
    {
      "op": "SliceChannel", 
      "name": "gru_40_t11__i2h_slice", 
      "attrs": {"num_outputs": "3"}, 
      "inputs": [[497, 0, 0]]
    }, 
    {
      "op": "_rminus_scalar", 
      "name": "_rminusscalar30", 
      "attrs": {"scalar": "1"}, 
      "inputs": [[463, 0, 0]]
    }, 
    {
      "op": "broadcast_mul", 
      "name": "broadcast_mul46", 
      "inputs": [[471, 0, 0], [499, 0, 0]]
    }, 
    {
      "op": "broadcast_mul", 
      "name": "broadcast_mul47", 
      "inputs": [[484, 0, 0], [463, 0, 0]]
    }, 
    {
      "op": "elemwise_add", 
      "name": "_plus52", 
      "inputs": [[500, 0, 0], [501, 0, 0]]
    }, 
    {
      "op": "FullyConnected", 
      "name": "gru_40_t11__h2h", 
      "attrs": {"num_hidden": "324"}, 
      "inputs": [[502, 0, 0], [160, 0, 0], [161, 0, 0]]
    }, 
    {
      "op": "SliceChannel", 
      "name": "gru_40_t11__h2h_slice", 
      "attrs": {"num_outputs": "3"}, 
      "inputs": [[503, 0, 0]]
    }, 
    {
      "op": "elemwise_add", 
      "name": "_plus54", 
      "inputs": [[498, 1, 0], [504, 1, 0]]
    }, 
    {
      "op": "Activation", 
      "name": "gru_40_t11__z_act", 
      "attrs": {"act_type": "sigmoid"}, 
      "inputs": [[505, 0, 0]]
    }, 
    {
      "op": "_rminus_scalar", 
      "name": "_rminusscalar31", 
      "attrs": {"scalar": "1.0"}, 
      "inputs": [[506, 0, 0]]
    }, 
    {
      "op": "elemwise_add", 
      "name": "_plus53", 
      "inputs": [[498, 0, 0], [504, 0, 0]]
    }, 
    {
      "op": "Activation", 
      "name": "gru_40_t11__r_act", 
      "attrs": {"act_type": "sigmoid"}, 
      "inputs": [[508, 0, 0]]
    }, 
    {
      "op": "elemwise_mul", 
      "name": "_mul33", 
      "inputs": [[509, 0, 0], [504, 2, 0]]
    }, 
    {
      "op": "elemwise_add", 
      "name": "_plus55", 
      "inputs": [[498, 2, 0], [510, 0, 0]]
    }, 
    {
      "op": "Activation", 
      "name": "gru_40_t11__h_act", 
      "attrs": {"act_type": "tanh"}, 
      "inputs": [[511, 0, 0]]
    }, 
    {
      "op": "elemwise_mul", 
      "name": "_mul34", 
      "inputs": [[507, 0, 0], [512, 0, 0]]
    }, 
    {
      "op": "elemwise_mul", 
      "name": "_mul35", 
      "inputs": [[506, 0, 0], [502, 0, 0]]
    }, 
    {
      "op": "elemwise_add", 
      "name": "gru_40_t11_out", 
      "inputs": [[513, 0, 0], [514, 0, 0]]
    }, 
    {
      "op": "broadcast_mul", 
      "name": "broadcast_mul49", 
      "inputs": [[515, 0, 0], [494, 0, 0]]
    }, 
    {
      "op": "elemwise_add", 
      "name": "_plus56", 
      "inputs": [[496, 0, 0], [516, 0, 0]]
    }, 
    {
      "op": "Reshape", 
      "name": "reshape52", 
      "attrs": {"shape": "(0, 1, 108)"}, 
      "inputs": [[517, 0, 0]]
    }, 
    {
      "op": "Concat", 
      "name": "concat41", 
      "attrs": {
        "dim": "1", 
        "num_args": "2"
      }, 
      "inputs": [[488, 0, 0], [518, 0, 0]]
    }, 
    {
      "op": "slice_axis", 
      "name": "slice_axis41", 
      "attrs": {
        "axis": "1", 
        "begin": "12", 
        "end": "13"
      }, 
      "inputs": [[153, 0, 0]]
    }, 
    {
      "op": "_equal_scalar", 
      "name": "_equal_scalar12", 
      "attrs": {"scalar": "0"}, 
      "inputs": [[520, 0, 0]]
    }, 
    {
      "op": "Reshape", 
      "name": "reshape53", 
      "attrs": {"shape": "(0, 108)"}, 
      "inputs": [[521, 0, 0]]
    }, 
    {
      "op": "sum", 
      "name": "sum14", 
      "attrs": {
        "axis": "1", 
        "keepdims": "True"
      }, 
      "inputs": [[522, 0, 0]]
    }, 
    {
      "op": "_not_equal_scalar", 
      "name": "_not_equal_scalar12", 
      "attrs": {"scalar": "108"}, 
      "inputs": [[523, 0, 0]]
    }, 
    {
      "op": "Reshape", 
      "name": "reshape54", 
      "attrs": {"shape": "(0, 1)"}, 
      "inputs": [[524, 0, 0]]
    }, 
    {
      "op": "_rminus_scalar", 
      "name": "_rminusscalar35", 
      "attrs": {"scalar": "1"}, 
      "inputs": [[525, 0, 0]]
    }, 
    {
      "op": "broadcast_mul", 
      "name": "broadcast_mul52", 
      "inputs": [[517, 0, 0], [526, 0, 0]]
    }, 
    {
      "op": "FullyConnected", 
      "name": "gru_40_t12__i2h", 
      "attrs": {"num_hidden": "324"}, 
      "inputs": [[520, 0, 0], [155, 0, 0], [156, 0, 0]]
    }, 
    {
      "op": "SliceChannel", 
      "name": "gru_40_t12__i2h_slice", 
      "attrs": {"num_outputs": "3"}, 
      "inputs": [[528, 0, 0]]
    }, 
    {
      "op": "_rminus_scalar", 
      "name": "_rminusscalar33", 
      "attrs": {"scalar": "1"}, 
      "inputs": [[494, 0, 0]]
    }, 
    {
      "op": "broadcast_mul", 
      "name": "broadcast_mul50", 
      "inputs": [[502, 0, 0], [530, 0, 0]]
    }, 
    {
      "op": "broadcast_mul", 
      "name": "broadcast_mul51", 
      "inputs": [[515, 0, 0], [494, 0, 0]]
    }, 
    {
      "op": "elemwise_add", 
      "name": "_plus57", 
      "inputs": [[531, 0, 0], [532, 0, 0]]
    }, 
    {
      "op": "FullyConnected", 
      "name": "gru_40_t12__h2h", 
      "attrs": {"num_hidden": "324"}, 
      "inputs": [[533, 0, 0], [160, 0, 0], [161, 0, 0]]
    }, 
    {
      "op": "SliceChannel", 
      "name": "gru_40_t12__h2h_slice", 
      "attrs": {"num_outputs": "3"}, 
      "inputs": [[534, 0, 0]]
    }, 
    {
      "op": "elemwise_add", 
      "name": "_plus59", 
      "inputs": [[529, 1, 0], [535, 1, 0]]
    }, 
    {
      "op": "Activation", 
      "name": "gru_40_t12__z_act", 
      "attrs": {"act_type": "sigmoid"}, 
      "inputs": [[536, 0, 0]]
    }, 
    {
      "op": "_rminus_scalar", 
      "name": "_rminusscalar34", 
      "attrs": {"scalar": "1.0"}, 
      "inputs": [[537, 0, 0]]
    }, 
    {
      "op": "elemwise_add", 
      "name": "_plus58", 
      "inputs": [[529, 0, 0], [535, 0, 0]]
    }, 
    {
      "op": "Activation", 
      "name": "gru_40_t12__r_act", 
      "attrs": {"act_type": "sigmoid"}, 
      "inputs": [[539, 0, 0]]
    }, 
    {
      "op": "elemwise_mul", 
      "name": "_mul36", 
      "inputs": [[540, 0, 0], [535, 2, 0]]
    }, 
    {
      "op": "elemwise_add", 
      "name": "_plus60", 
      "inputs": [[529, 2, 0], [541, 0, 0]]
    }, 
    {
      "op": "Activation", 
      "name": "gru_40_t12__h_act", 
      "attrs": {"act_type": "tanh"}, 
      "inputs": [[542, 0, 0]]
    }, 
    {
      "op": "elemwise_mul", 
      "name": "_mul37", 
      "inputs": [[538, 0, 0], [543, 0, 0]]
    }, 
    {
      "op": "elemwise_mul", 
      "name": "_mul38", 
      "inputs": [[537, 0, 0], [533, 0, 0]]
    }, 
    {
      "op": "elemwise_add", 
      "name": "gru_40_t12_out", 
      "inputs": [[544, 0, 0], [545, 0, 0]]
    }, 
    {
      "op": "broadcast_mul", 
      "name": "broadcast_mul53", 
      "inputs": [[546, 0, 0], [525, 0, 0]]
    }, 
    {
      "op": "elemwise_add", 
      "name": "_plus61", 
      "inputs": [[527, 0, 0], [547, 0, 0]]
    }, 
    {
      "op": "Reshape", 
      "name": "reshape55", 
      "attrs": {"shape": "(0, 1, 108)"}, 
      "inputs": [[548, 0, 0]]
    }, 
    {
      "op": "Concat", 
      "name": "concat43", 
      "attrs": {
        "dim": "1", 
        "num_args": "2"
      }, 
      "inputs": [[519, 0, 0], [549, 0, 0]]
    }, 
    {
      "op": "slice_axis", 
      "name": "slice_axis42", 
      "attrs": {
        "axis": "1", 
        "begin": "13", 
        "end": "14"
      }, 
      "inputs": [[153, 0, 0]]
    }, 
    {
      "op": "_equal_scalar", 
      "name": "_equal_scalar13", 
      "attrs": {"scalar": "0"}, 
      "inputs": [[551, 0, 0]]
    }, 
    {
      "op": "Reshape", 
      "name": "reshape56", 
      "attrs": {"shape": "(0, 108)"}, 
      "inputs": [[552, 0, 0]]
    }, 
    {
      "op": "sum", 
      "name": "sum15", 
      "attrs": {
        "axis": "1", 
        "keepdims": "True"
      }, 
      "inputs": [[553, 0, 0]]
    }, 
    {
      "op": "_not_equal_scalar", 
      "name": "_not_equal_scalar13", 
      "attrs": {"scalar": "108"}, 
      "inputs": [[554, 0, 0]]
    }, 
    {
      "op": "Reshape", 
      "name": "reshape57", 
      "attrs": {"shape": "(0, 1)"}, 
      "inputs": [[555, 0, 0]]
    }, 
    {
      "op": "_rminus_scalar", 
      "name": "_rminusscalar38", 
      "attrs": {"scalar": "1"}, 
      "inputs": [[556, 0, 0]]
    }, 
    {
      "op": "broadcast_mul", 
      "name": "broadcast_mul56", 
      "inputs": [[548, 0, 0], [557, 0, 0]]
    }, 
    {
      "op": "FullyConnected", 
      "name": "gru_40_t13__i2h", 
      "attrs": {"num_hidden": "324"}, 
      "inputs": [[551, 0, 0], [155, 0, 0], [156, 0, 0]]
    }, 
    {
      "op": "SliceChannel", 
      "name": "gru_40_t13__i2h_slice", 
      "attrs": {"num_outputs": "3"}, 
      "inputs": [[559, 0, 0]]
    }, 
    {
      "op": "_rminus_scalar", 
      "name": "_rminusscalar36", 
      "attrs": {"scalar": "1"}, 
      "inputs": [[525, 0, 0]]
    }, 
    {
      "op": "broadcast_mul", 
      "name": "broadcast_mul54", 
      "inputs": [[533, 0, 0], [561, 0, 0]]
    }, 
    {
      "op": "broadcast_mul", 
      "name": "broadcast_mul55", 
      "inputs": [[546, 0, 0], [525, 0, 0]]
    }, 
    {
      "op": "elemwise_add", 
      "name": "_plus62", 
      "inputs": [[562, 0, 0], [563, 0, 0]]
    }, 
    {
      "op": "FullyConnected", 
      "name": "gru_40_t13__h2h", 
      "attrs": {"num_hidden": "324"}, 
      "inputs": [[564, 0, 0], [160, 0, 0], [161, 0, 0]]
    }, 
    {
      "op": "SliceChannel", 
      "name": "gru_40_t13__h2h_slice", 
      "attrs": {"num_outputs": "3"}, 
      "inputs": [[565, 0, 0]]
    }, 
    {
      "op": "elemwise_add", 
      "name": "_plus64", 
      "inputs": [[560, 1, 0], [566, 1, 0]]
    }, 
    {
      "op": "Activation", 
      "name": "gru_40_t13__z_act", 
      "attrs": {"act_type": "sigmoid"}, 
      "inputs": [[567, 0, 0]]
    }, 
    {
      "op": "_rminus_scalar", 
      "name": "_rminusscalar37", 
      "attrs": {"scalar": "1.0"}, 
      "inputs": [[568, 0, 0]]
    }, 
    {
      "op": "elemwise_add", 
      "name": "_plus63", 
      "inputs": [[560, 0, 0], [566, 0, 0]]
    }, 
    {
      "op": "Activation", 
      "name": "gru_40_t13__r_act", 
      "attrs": {"act_type": "sigmoid"}, 
      "inputs": [[570, 0, 0]]
    }, 
    {
      "op": "elemwise_mul", 
      "name": "_mul39", 
      "inputs": [[571, 0, 0], [566, 2, 0]]
    }, 
    {
      "op": "elemwise_add", 
      "name": "_plus65", 
      "inputs": [[560, 2, 0], [572, 0, 0]]
    }, 
    {
      "op": "Activation", 
      "name": "gru_40_t13__h_act", 
      "attrs": {"act_type": "tanh"}, 
      "inputs": [[573, 0, 0]]
    }, 
    {
      "op": "elemwise_mul", 
      "name": "_mul40", 
      "inputs": [[569, 0, 0], [574, 0, 0]]
    }, 
    {
      "op": "elemwise_mul", 
      "name": "_mul41", 
      "inputs": [[568, 0, 0], [564, 0, 0]]
    }, 
    {
      "op": "elemwise_add", 
      "name": "gru_40_t13_out", 
      "inputs": [[575, 0, 0], [576, 0, 0]]
    }, 
    {
      "op": "broadcast_mul", 
      "name": "broadcast_mul57", 
      "inputs": [[577, 0, 0], [556, 0, 0]]
    }, 
    {
      "op": "elemwise_add", 
      "name": "_plus66", 
      "inputs": [[558, 0, 0], [578, 0, 0]]
    }, 
    {
      "op": "Reshape", 
      "name": "reshape58", 
      "attrs": {"shape": "(0, 1, 108)"}, 
      "inputs": [[579, 0, 0]]
    }, 
    {
      "op": "Concat", 
      "name": "concat45", 
      "attrs": {
        "dim": "1", 
        "num_args": "2"
      }, 
      "inputs": [[550, 0, 0], [580, 0, 0]]
    }, 
    {
      "op": "slice_axis", 
      "name": "slice_axis43", 
      "attrs": {
        "axis": "1", 
        "begin": "14", 
        "end": "15"
      }, 
      "inputs": [[153, 0, 0]]
    }, 
    {
      "op": "_equal_scalar", 
      "name": "_equal_scalar14", 
      "attrs": {"scalar": "0"}, 
      "inputs": [[582, 0, 0]]
    }, 
    {
      "op": "Reshape", 
      "name": "reshape59", 
      "attrs": {"shape": "(0, 108)"}, 
      "inputs": [[583, 0, 0]]
    }, 
    {
      "op": "sum", 
      "name": "sum16", 
      "attrs": {
        "axis": "1", 
        "keepdims": "True"
      }, 
      "inputs": [[584, 0, 0]]
    }, 
    {
      "op": "_not_equal_scalar", 
      "name": "_not_equal_scalar14", 
      "attrs": {"scalar": "108"}, 
      "inputs": [[585, 0, 0]]
    }, 
    {
      "op": "Reshape", 
      "name": "reshape60", 
      "attrs": {"shape": "(0, 1)"}, 
      "inputs": [[586, 0, 0]]
    }, 
    {
      "op": "_rminus_scalar", 
      "name": "_rminusscalar41", 
      "attrs": {"scalar": "1"}, 
      "inputs": [[587, 0, 0]]
    }, 
    {
      "op": "broadcast_mul", 
      "name": "broadcast_mul60", 
      "inputs": [[579, 0, 0], [588, 0, 0]]
    }, 
    {
      "op": "FullyConnected", 
      "name": "gru_40_t14__i2h", 
      "attrs": {"num_hidden": "324"}, 
      "inputs": [[582, 0, 0], [155, 0, 0], [156, 0, 0]]
    }, 
    {
      "op": "SliceChannel", 
      "name": "gru_40_t14__i2h_slice", 
      "attrs": {"num_outputs": "3"}, 
      "inputs": [[590, 0, 0]]
    }, 
    {
      "op": "_rminus_scalar", 
      "name": "_rminusscalar39", 
      "attrs": {"scalar": "1"}, 
      "inputs": [[556, 0, 0]]
    }, 
    {
      "op": "broadcast_mul", 
      "name": "broadcast_mul58", 
      "inputs": [[564, 0, 0], [592, 0, 0]]
    }, 
    {
      "op": "broadcast_mul", 
      "name": "broadcast_mul59", 
      "inputs": [[577, 0, 0], [556, 0, 0]]
    }, 
    {
      "op": "elemwise_add", 
      "name": "_plus67", 
      "inputs": [[593, 0, 0], [594, 0, 0]]
    }, 
    {
      "op": "FullyConnected", 
      "name": "gru_40_t14__h2h", 
      "attrs": {"num_hidden": "324"}, 
      "inputs": [[595, 0, 0], [160, 0, 0], [161, 0, 0]]
    }, 
    {
      "op": "SliceChannel", 
      "name": "gru_40_t14__h2h_slice", 
      "attrs": {"num_outputs": "3"}, 
      "inputs": [[596, 0, 0]]
    }, 
    {
      "op": "elemwise_add", 
      "name": "_plus69", 
      "inputs": [[591, 1, 0], [597, 1, 0]]
    }, 
    {
      "op": "Activation", 
      "name": "gru_40_t14__z_act", 
      "attrs": {"act_type": "sigmoid"}, 
      "inputs": [[598, 0, 0]]
    }, 
    {
      "op": "_rminus_scalar", 
      "name": "_rminusscalar40", 
      "attrs": {"scalar": "1.0"}, 
      "inputs": [[599, 0, 0]]
    }, 
    {
      "op": "elemwise_add", 
      "name": "_plus68", 
      "inputs": [[591, 0, 0], [597, 0, 0]]
    }, 
    {
      "op": "Activation", 
      "name": "gru_40_t14__r_act", 
      "attrs": {"act_type": "sigmoid"}, 
      "inputs": [[601, 0, 0]]
    }, 
    {
      "op": "elemwise_mul", 
      "name": "_mul42", 
      "inputs": [[602, 0, 0], [597, 2, 0]]
    }, 
    {
      "op": "elemwise_add", 
      "name": "_plus70", 
      "inputs": [[591, 2, 0], [603, 0, 0]]
    }, 
    {
      "op": "Activation", 
      "name": "gru_40_t14__h_act", 
      "attrs": {"act_type": "tanh"}, 
      "inputs": [[604, 0, 0]]
    }, 
    {
      "op": "elemwise_mul", 
      "name": "_mul43", 
      "inputs": [[600, 0, 0], [605, 0, 0]]
    }, 
    {
      "op": "elemwise_mul", 
      "name": "_mul44", 
      "inputs": [[599, 0, 0], [595, 0, 0]]
    }, 
    {
      "op": "elemwise_add", 
      "name": "gru_40_t14_out", 
      "inputs": [[606, 0, 0], [607, 0, 0]]
    }, 
    {
      "op": "broadcast_mul", 
      "name": "broadcast_mul61", 
      "inputs": [[608, 0, 0], [587, 0, 0]]
    }, 
    {
      "op": "elemwise_add", 
      "name": "_plus71", 
      "inputs": [[589, 0, 0], [609, 0, 0]]
    }, 
    {
      "op": "Reshape", 
      "name": "reshape61", 
      "attrs": {"shape": "(0, 1, 108)"}, 
      "inputs": [[610, 0, 0]]
    }, 
    {
      "op": "Concat", 
      "name": "concat47", 
      "attrs": {
        "dim": "1", 
        "num_args": "2"
      }, 
      "inputs": [[581, 0, 0], [611, 0, 0]]
    }, 
    {
      "op": "slice_axis", 
      "name": "slice_axis44", 
      "attrs": {
        "axis": "1", 
        "begin": "15", 
        "end": "16"
      }, 
      "inputs": [[153, 0, 0]]
    }, 
    {
      "op": "_equal_scalar", 
      "name": "_equal_scalar15", 
      "attrs": {"scalar": "0"}, 
      "inputs": [[613, 0, 0]]
    }, 
    {
      "op": "Reshape", 
      "name": "reshape62", 
      "attrs": {"shape": "(0, 108)"}, 
      "inputs": [[614, 0, 0]]
    }, 
    {
      "op": "sum", 
      "name": "sum17", 
      "attrs": {
        "axis": "1", 
        "keepdims": "True"
      }, 
      "inputs": [[615, 0, 0]]
    }, 
    {
      "op": "_not_equal_scalar", 
      "name": "_not_equal_scalar15", 
      "attrs": {"scalar": "108"}, 
      "inputs": [[616, 0, 0]]
    }, 
    {
      "op": "Reshape", 
      "name": "reshape63", 
      "attrs": {"shape": "(0, 1)"}, 
      "inputs": [[617, 0, 0]]
    }, 
    {
      "op": "_rminus_scalar", 
      "name": "_rminusscalar44", 
      "attrs": {"scalar": "1"}, 
      "inputs": [[618, 0, 0]]
    }, 
    {
      "op": "broadcast_mul", 
      "name": "broadcast_mul64", 
      "inputs": [[610, 0, 0], [619, 0, 0]]
    }, 
    {
      "op": "FullyConnected", 
      "name": "gru_40_t15__i2h", 
      "attrs": {"num_hidden": "324"}, 
      "inputs": [[613, 0, 0], [155, 0, 0], [156, 0, 0]]
    }, 
    {
      "op": "SliceChannel", 
      "name": "gru_40_t15__i2h_slice", 
      "attrs": {"num_outputs": "3"}, 
      "inputs": [[621, 0, 0]]
    }, 
    {
      "op": "_rminus_scalar", 
      "name": "_rminusscalar42", 
      "attrs": {"scalar": "1"}, 
      "inputs": [[587, 0, 0]]
    }, 
    {
      "op": "broadcast_mul", 
      "name": "broadcast_mul62", 
      "inputs": [[595, 0, 0], [623, 0, 0]]
    }, 
    {
      "op": "broadcast_mul", 
      "name": "broadcast_mul63", 
      "inputs": [[608, 0, 0], [587, 0, 0]]
    }, 
    {
      "op": "elemwise_add", 
      "name": "_plus72", 
      "inputs": [[624, 0, 0], [625, 0, 0]]
    }, 
    {
      "op": "FullyConnected", 
      "name": "gru_40_t15__h2h", 
      "attrs": {"num_hidden": "324"}, 
      "inputs": [[626, 0, 0], [160, 0, 0], [161, 0, 0]]
    }, 
    {
      "op": "SliceChannel", 
      "name": "gru_40_t15__h2h_slice", 
      "attrs": {"num_outputs": "3"}, 
      "inputs": [[627, 0, 0]]
    }, 
    {
      "op": "elemwise_add", 
      "name": "_plus74", 
      "inputs": [[622, 1, 0], [628, 1, 0]]
    }, 
    {
      "op": "Activation", 
      "name": "gru_40_t15__z_act", 
      "attrs": {"act_type": "sigmoid"}, 
      "inputs": [[629, 0, 0]]
    }, 
    {
      "op": "_rminus_scalar", 
      "name": "_rminusscalar43", 
      "attrs": {"scalar": "1.0"}, 
      "inputs": [[630, 0, 0]]
    }, 
    {
      "op": "elemwise_add", 
      "name": "_plus73", 
      "inputs": [[622, 0, 0], [628, 0, 0]]
    }, 
    {
      "op": "Activation", 
      "name": "gru_40_t15__r_act", 
      "attrs": {"act_type": "sigmoid"}, 
      "inputs": [[632, 0, 0]]
    }, 
    {
      "op": "elemwise_mul", 
      "name": "_mul45", 
      "inputs": [[633, 0, 0], [628, 2, 0]]
    }, 
    {
      "op": "elemwise_add", 
      "name": "_plus75", 
      "inputs": [[622, 2, 0], [634, 0, 0]]
    }, 
    {
      "op": "Activation", 
      "name": "gru_40_t15__h_act", 
      "attrs": {"act_type": "tanh"}, 
      "inputs": [[635, 0, 0]]
    }, 
    {
      "op": "elemwise_mul", 
      "name": "_mul46", 
      "inputs": [[631, 0, 0], [636, 0, 0]]
    }, 
    {
      "op": "elemwise_mul", 
      "name": "_mul47", 
      "inputs": [[630, 0, 0], [626, 0, 0]]
    }, 
    {
      "op": "elemwise_add", 
      "name": "gru_40_t15_out", 
      "inputs": [[637, 0, 0], [638, 0, 0]]
    }, 
    {
      "op": "broadcast_mul", 
      "name": "broadcast_mul65", 
      "inputs": [[639, 0, 0], [618, 0, 0]]
    }, 
    {
      "op": "elemwise_add", 
      "name": "_plus76", 
      "inputs": [[620, 0, 0], [640, 0, 0]]
    }, 
    {
      "op": "Reshape", 
      "name": "reshape64", 
      "attrs": {"shape": "(0, 1, 108)"}, 
      "inputs": [[641, 0, 0]]
    }, 
    {
      "op": "Concat", 
      "name": "concat49", 
      "attrs": {
        "dim": "1", 
        "num_args": "2"
      }, 
      "inputs": [[612, 0, 0], [642, 0, 0]]
    }, 
    {
      "op": "slice_axis", 
      "name": "slice_axis45", 
      "attrs": {
        "axis": "1", 
        "begin": "16", 
        "end": "17"
      }, 
      "inputs": [[153, 0, 0]]
    }, 
    {
      "op": "_equal_scalar", 
      "name": "_equal_scalar16", 
      "attrs": {"scalar": "0"}, 
      "inputs": [[644, 0, 0]]
    }, 
    {
      "op": "Reshape", 
      "name": "reshape65", 
      "attrs": {"shape": "(0, 108)"}, 
      "inputs": [[645, 0, 0]]
    }, 
    {
      "op": "sum", 
      "name": "sum18", 
      "attrs": {
        "axis": "1", 
        "keepdims": "True"
      }, 
      "inputs": [[646, 0, 0]]
    }, 
    {
      "op": "_not_equal_scalar", 
      "name": "_not_equal_scalar16", 
      "attrs": {"scalar": "108"}, 
      "inputs": [[647, 0, 0]]
    }, 
    {
      "op": "Reshape", 
      "name": "reshape66", 
      "attrs": {"shape": "(0, 1)"}, 
      "inputs": [[648, 0, 0]]
    }, 
    {
      "op": "_rminus_scalar", 
      "name": "_rminusscalar47", 
      "attrs": {"scalar": "1"}, 
      "inputs": [[649, 0, 0]]
    }, 
    {
      "op": "broadcast_mul", 
      "name": "broadcast_mul68", 
      "inputs": [[641, 0, 0], [650, 0, 0]]
    }, 
    {
      "op": "FullyConnected", 
      "name": "gru_40_t16__i2h", 
      "attrs": {"num_hidden": "324"}, 
      "inputs": [[644, 0, 0], [155, 0, 0], [156, 0, 0]]
    }, 
    {
      "op": "SliceChannel", 
      "name": "gru_40_t16__i2h_slice", 
      "attrs": {"num_outputs": "3"}, 
      "inputs": [[652, 0, 0]]
    }, 
    {
      "op": "_rminus_scalar", 
      "name": "_rminusscalar45", 
      "attrs": {"scalar": "1"}, 
      "inputs": [[618, 0, 0]]
    }, 
    {
      "op": "broadcast_mul", 
      "name": "broadcast_mul66", 
      "inputs": [[626, 0, 0], [654, 0, 0]]
    }, 
    {
      "op": "broadcast_mul", 
      "name": "broadcast_mul67", 
      "inputs": [[639, 0, 0], [618, 0, 0]]
    }, 
    {
      "op": "elemwise_add", 
      "name": "_plus77", 
      "inputs": [[655, 0, 0], [656, 0, 0]]
    }, 
    {
      "op": "FullyConnected", 
      "name": "gru_40_t16__h2h", 
      "attrs": {"num_hidden": "324"}, 
      "inputs": [[657, 0, 0], [160, 0, 0], [161, 0, 0]]
    }, 
    {
      "op": "SliceChannel", 
      "name": "gru_40_t16__h2h_slice", 
      "attrs": {"num_outputs": "3"}, 
      "inputs": [[658, 0, 0]]
    }, 
    {
      "op": "elemwise_add", 
      "name": "_plus79", 
      "inputs": [[653, 1, 0], [659, 1, 0]]
    }, 
    {
      "op": "Activation", 
      "name": "gru_40_t16__z_act", 
      "attrs": {"act_type": "sigmoid"}, 
      "inputs": [[660, 0, 0]]
    }, 
    {
      "op": "_rminus_scalar", 
      "name": "_rminusscalar46", 
      "attrs": {"scalar": "1.0"}, 
      "inputs": [[661, 0, 0]]
    }, 
    {
      "op": "elemwise_add", 
      "name": "_plus78", 
      "inputs": [[653, 0, 0], [659, 0, 0]]
    }, 
    {
      "op": "Activation", 
      "name": "gru_40_t16__r_act", 
      "attrs": {"act_type": "sigmoid"}, 
      "inputs": [[663, 0, 0]]
    }, 
    {
      "op": "elemwise_mul", 
      "name": "_mul48", 
      "inputs": [[664, 0, 0], [659, 2, 0]]
    }, 
    {
      "op": "elemwise_add", 
      "name": "_plus80", 
      "inputs": [[653, 2, 0], [665, 0, 0]]
    }, 
    {
      "op": "Activation", 
      "name": "gru_40_t16__h_act", 
      "attrs": {"act_type": "tanh"}, 
      "inputs": [[666, 0, 0]]
    }, 
    {
      "op": "elemwise_mul", 
      "name": "_mul49", 
      "inputs": [[662, 0, 0], [667, 0, 0]]
    }, 
    {
      "op": "elemwise_mul", 
      "name": "_mul50", 
      "inputs": [[661, 0, 0], [657, 0, 0]]
    }, 
    {
      "op": "elemwise_add", 
      "name": "gru_40_t16_out", 
      "inputs": [[668, 0, 0], [669, 0, 0]]
    }, 
    {
      "op": "broadcast_mul", 
      "name": "broadcast_mul69", 
      "inputs": [[670, 0, 0], [649, 0, 0]]
    }, 
    {
      "op": "elemwise_add", 
      "name": "_plus81", 
      "inputs": [[651, 0, 0], [671, 0, 0]]
    }, 
    {
      "op": "Reshape", 
      "name": "reshape67", 
      "attrs": {"shape": "(0, 1, 108)"}, 
      "inputs": [[672, 0, 0]]
    }, 
    {
      "op": "Concat", 
      "name": "concat51", 
      "attrs": {
        "dim": "1", 
        "num_args": "2"
      }, 
      "inputs": [[643, 0, 0], [673, 0, 0]]
    }, 
    {
      "op": "slice_axis", 
      "name": "slice_axis46", 
      "attrs": {
        "axis": "1", 
        "begin": "17", 
        "end": "18"
      }, 
      "inputs": [[153, 0, 0]]
    }, 
    {
      "op": "_equal_scalar", 
      "name": "_equal_scalar17", 
      "attrs": {"scalar": "0"}, 
      "inputs": [[675, 0, 0]]
    }, 
    {
      "op": "Reshape", 
      "name": "reshape68", 
      "attrs": {"shape": "(0, 108)"}, 
      "inputs": [[676, 0, 0]]
    }, 
    {
      "op": "sum", 
      "name": "sum19", 
      "attrs": {
        "axis": "1", 
        "keepdims": "True"
      }, 
      "inputs": [[677, 0, 0]]
    }, 
    {
      "op": "_not_equal_scalar", 
      "name": "_not_equal_scalar17", 
      "attrs": {"scalar": "108"}, 
      "inputs": [[678, 0, 0]]
    }, 
    {
      "op": "Reshape", 
      "name": "reshape69", 
      "attrs": {"shape": "(0, 1)"}, 
      "inputs": [[679, 0, 0]]
    }, 
    {
      "op": "_rminus_scalar", 
      "name": "_rminusscalar50", 
      "attrs": {"scalar": "1"}, 
      "inputs": [[680, 0, 0]]
    }, 
    {
      "op": "broadcast_mul", 
      "name": "broadcast_mul72", 
      "inputs": [[672, 0, 0], [681, 0, 0]]
    }, 
    {
      "op": "FullyConnected", 
      "name": "gru_40_t17__i2h", 
      "attrs": {"num_hidden": "324"}, 
      "inputs": [[675, 0, 0], [155, 0, 0], [156, 0, 0]]
    }, 
    {
      "op": "SliceChannel", 
      "name": "gru_40_t17__i2h_slice", 
      "attrs": {"num_outputs": "3"}, 
      "inputs": [[683, 0, 0]]
    }, 
    {
      "op": "_rminus_scalar", 
      "name": "_rminusscalar48", 
      "attrs": {"scalar": "1"}, 
      "inputs": [[649, 0, 0]]
    }, 
    {
      "op": "broadcast_mul", 
      "name": "broadcast_mul70", 
      "inputs": [[657, 0, 0], [685, 0, 0]]
    }, 
    {
      "op": "broadcast_mul", 
      "name": "broadcast_mul71", 
      "inputs": [[670, 0, 0], [649, 0, 0]]
    }, 
    {
      "op": "elemwise_add", 
      "name": "_plus82", 
      "inputs": [[686, 0, 0], [687, 0, 0]]
    }, 
    {
      "op": "FullyConnected", 
      "name": "gru_40_t17__h2h", 
      "attrs": {"num_hidden": "324"}, 
      "inputs": [[688, 0, 0], [160, 0, 0], [161, 0, 0]]
    }, 
    {
      "op": "SliceChannel", 
      "name": "gru_40_t17__h2h_slice", 
      "attrs": {"num_outputs": "3"}, 
      "inputs": [[689, 0, 0]]
    }, 
    {
      "op": "elemwise_add", 
      "name": "_plus84", 
      "inputs": [[684, 1, 0], [690, 1, 0]]
    }, 
    {
      "op": "Activation", 
      "name": "gru_40_t17__z_act", 
      "attrs": {"act_type": "sigmoid"}, 
      "inputs": [[691, 0, 0]]
    }, 
    {
      "op": "_rminus_scalar", 
      "name": "_rminusscalar49", 
      "attrs": {"scalar": "1.0"}, 
      "inputs": [[692, 0, 0]]
    }, 
    {
      "op": "elemwise_add", 
      "name": "_plus83", 
      "inputs": [[684, 0, 0], [690, 0, 0]]
    }, 
    {
      "op": "Activation", 
      "name": "gru_40_t17__r_act", 
      "attrs": {"act_type": "sigmoid"}, 
      "inputs": [[694, 0, 0]]
    }, 
    {
      "op": "elemwise_mul", 
      "name": "_mul51", 
      "inputs": [[695, 0, 0], [690, 2, 0]]
    }, 
    {
      "op": "elemwise_add", 
      "name": "_plus85", 
      "inputs": [[684, 2, 0], [696, 0, 0]]
    }, 
    {
      "op": "Activation", 
      "name": "gru_40_t17__h_act", 
      "attrs": {"act_type": "tanh"}, 
      "inputs": [[697, 0, 0]]
    }, 
    {
      "op": "elemwise_mul", 
      "name": "_mul52", 
      "inputs": [[693, 0, 0], [698, 0, 0]]
    }, 
    {
      "op": "elemwise_mul", 
      "name": "_mul53", 
      "inputs": [[692, 0, 0], [688, 0, 0]]
    }, 
    {
      "op": "elemwise_add", 
      "name": "gru_40_t17_out", 
      "inputs": [[699, 0, 0], [700, 0, 0]]
    }, 
    {
      "op": "broadcast_mul", 
      "name": "broadcast_mul73", 
      "inputs": [[701, 0, 0], [680, 0, 0]]
    }, 
    {
      "op": "elemwise_add", 
      "name": "_plus86", 
      "inputs": [[682, 0, 0], [702, 0, 0]]
    }, 
    {
      "op": "Reshape", 
      "name": "reshape70", 
      "attrs": {"shape": "(0, 1, 108)"}, 
      "inputs": [[703, 0, 0]]
    }, 
    {
      "op": "Concat", 
      "name": "concat53", 
      "attrs": {
        "dim": "1", 
        "num_args": "2"
      }, 
      "inputs": [[674, 0, 0], [704, 0, 0]]
    }, 
    {
      "op": "slice_axis", 
      "name": "slice_axis47", 
      "attrs": {
        "axis": "1", 
        "begin": "18", 
        "end": "19"
      }, 
      "inputs": [[153, 0, 0]]
    }, 
    {
      "op": "_equal_scalar", 
      "name": "_equal_scalar18", 
      "attrs": {"scalar": "0"}, 
      "inputs": [[706, 0, 0]]
    }, 
    {
      "op": "Reshape", 
      "name": "reshape71", 
      "attrs": {"shape": "(0, 108)"}, 
      "inputs": [[707, 0, 0]]
    }, 
    {
      "op": "sum", 
      "name": "sum20", 
      "attrs": {
        "axis": "1", 
        "keepdims": "True"
      }, 
      "inputs": [[708, 0, 0]]
    }, 
    {
      "op": "_not_equal_scalar", 
      "name": "_not_equal_scalar18", 
      "attrs": {"scalar": "108"}, 
      "inputs": [[709, 0, 0]]
    }, 
    {
      "op": "Reshape", 
      "name": "reshape72", 
      "attrs": {"shape": "(0, 1)"}, 
      "inputs": [[710, 0, 0]]
    }, 
    {
      "op": "_rminus_scalar", 
      "name": "_rminusscalar53", 
      "attrs": {"scalar": "1"}, 
      "inputs": [[711, 0, 0]]
    }, 
    {
      "op": "broadcast_mul", 
      "name": "broadcast_mul76", 
      "inputs": [[703, 0, 0], [712, 0, 0]]
    }, 
    {
      "op": "FullyConnected", 
      "name": "gru_40_t18__i2h", 
      "attrs": {"num_hidden": "324"}, 
      "inputs": [[706, 0, 0], [155, 0, 0], [156, 0, 0]]
    }, 
    {
      "op": "SliceChannel", 
      "name": "gru_40_t18__i2h_slice", 
      "attrs": {"num_outputs": "3"}, 
      "inputs": [[714, 0, 0]]
    }, 
    {
      "op": "_rminus_scalar", 
      "name": "_rminusscalar51", 
      "attrs": {"scalar": "1"}, 
      "inputs": [[680, 0, 0]]
    }, 
    {
      "op": "broadcast_mul", 
      "name": "broadcast_mul74", 
      "inputs": [[688, 0, 0], [716, 0, 0]]
    }, 
    {
      "op": "broadcast_mul", 
      "name": "broadcast_mul75", 
      "inputs": [[701, 0, 0], [680, 0, 0]]
    }, 
    {
      "op": "elemwise_add", 
      "name": "_plus87", 
      "inputs": [[717, 0, 0], [718, 0, 0]]
    }, 
    {
      "op": "FullyConnected", 
      "name": "gru_40_t18__h2h", 
      "attrs": {"num_hidden": "324"}, 
      "inputs": [[719, 0, 0], [160, 0, 0], [161, 0, 0]]
    }, 
    {
      "op": "SliceChannel", 
      "name": "gru_40_t18__h2h_slice", 
      "attrs": {"num_outputs": "3"}, 
      "inputs": [[720, 0, 0]]
    }, 
    {
      "op": "elemwise_add", 
      "name": "_plus89", 
      "inputs": [[715, 1, 0], [721, 1, 0]]
    }, 
    {
      "op": "Activation", 
      "name": "gru_40_t18__z_act", 
      "attrs": {"act_type": "sigmoid"}, 
      "inputs": [[722, 0, 0]]
    }, 
    {
      "op": "_rminus_scalar", 
      "name": "_rminusscalar52", 
      "attrs": {"scalar": "1.0"}, 
      "inputs": [[723, 0, 0]]
    }, 
    {
      "op": "elemwise_add", 
      "name": "_plus88", 
      "inputs": [[715, 0, 0], [721, 0, 0]]
    }, 
    {
      "op": "Activation", 
      "name": "gru_40_t18__r_act", 
      "attrs": {"act_type": "sigmoid"}, 
      "inputs": [[725, 0, 0]]
    }, 
    {
      "op": "elemwise_mul", 
      "name": "_mul54", 
      "inputs": [[726, 0, 0], [721, 2, 0]]
    }, 
    {
      "op": "elemwise_add", 
      "name": "_plus90", 
      "inputs": [[715, 2, 0], [727, 0, 0]]
    }, 
    {
      "op": "Activation", 
      "name": "gru_40_t18__h_act", 
      "attrs": {"act_type": "tanh"}, 
      "inputs": [[728, 0, 0]]
    }, 
    {
      "op": "elemwise_mul", 
      "name": "_mul55", 
      "inputs": [[724, 0, 0], [729, 0, 0]]
    }, 
    {
      "op": "elemwise_mul", 
      "name": "_mul56", 
      "inputs": [[723, 0, 0], [719, 0, 0]]
    }, 
    {
      "op": "elemwise_add", 
      "name": "gru_40_t18_out", 
      "inputs": [[730, 0, 0], [731, 0, 0]]
    }, 
    {
      "op": "broadcast_mul", 
      "name": "broadcast_mul77", 
      "inputs": [[732, 0, 0], [711, 0, 0]]
    }, 
    {
      "op": "elemwise_add", 
      "name": "_plus91", 
      "inputs": [[713, 0, 0], [733, 0, 0]]
    }, 
    {
      "op": "Reshape", 
      "name": "reshape73", 
      "attrs": {"shape": "(0, 1, 108)"}, 
      "inputs": [[734, 0, 0]]
    }, 
    {
      "op": "Concat", 
      "name": "concat55", 
      "attrs": {
        "dim": "1", 
        "num_args": "2"
      }, 
      "inputs": [[705, 0, 0], [735, 0, 0]]
    }, 
    {
      "op": "slice_axis", 
      "name": "slice_axis48", 
      "attrs": {
        "axis": "1", 
        "begin": "19", 
        "end": "20"
      }, 
      "inputs": [[153, 0, 0]]
    }, 
    {
      "op": "_equal_scalar", 
      "name": "_equal_scalar19", 
      "attrs": {"scalar": "0"}, 
      "inputs": [[737, 0, 0]]
    }, 
    {
      "op": "Reshape", 
      "name": "reshape74", 
      "attrs": {"shape": "(0, 108)"}, 
      "inputs": [[738, 0, 0]]
    }, 
    {
      "op": "sum", 
      "name": "sum21", 
      "attrs": {
        "axis": "1", 
        "keepdims": "True"
      }, 
      "inputs": [[739, 0, 0]]
    }, 
    {
      "op": "_not_equal_scalar", 
      "name": "_not_equal_scalar19", 
      "attrs": {"scalar": "108"}, 
      "inputs": [[740, 0, 0]]
    }, 
    {
      "op": "Reshape", 
      "name": "reshape75", 
      "attrs": {"shape": "(0, 1)"}, 
      "inputs": [[741, 0, 0]]
    }, 
    {
      "op": "_rminus_scalar", 
      "name": "_rminusscalar56", 
      "attrs": {"scalar": "1"}, 
      "inputs": [[742, 0, 0]]
    }, 
    {
      "op": "broadcast_mul", 
      "name": "broadcast_mul80", 
      "inputs": [[734, 0, 0], [743, 0, 0]]
    }, 
    {
      "op": "FullyConnected", 
      "name": "gru_40_t19__i2h", 
      "attrs": {"num_hidden": "324"}, 
      "inputs": [[737, 0, 0], [155, 0, 0], [156, 0, 0]]
    }, 
    {
      "op": "SliceChannel", 
      "name": "gru_40_t19__i2h_slice", 
      "attrs": {"num_outputs": "3"}, 
      "inputs": [[745, 0, 0]]
    }, 
    {
      "op": "_rminus_scalar", 
      "name": "_rminusscalar54", 
      "attrs": {"scalar": "1"}, 
      "inputs": [[711, 0, 0]]
    }, 
    {
      "op": "broadcast_mul", 
      "name": "broadcast_mul78", 
      "inputs": [[719, 0, 0], [747, 0, 0]]
    }, 
    {
      "op": "broadcast_mul", 
      "name": "broadcast_mul79", 
      "inputs": [[732, 0, 0], [711, 0, 0]]
    }, 
    {
      "op": "elemwise_add", 
      "name": "_plus92", 
      "inputs": [[748, 0, 0], [749, 0, 0]]
    }, 
    {
      "op": "FullyConnected", 
      "name": "gru_40_t19__h2h", 
      "attrs": {"num_hidden": "324"}, 
      "inputs": [[750, 0, 0], [160, 0, 0], [161, 0, 0]]
    }, 
    {
      "op": "SliceChannel", 
      "name": "gru_40_t19__h2h_slice", 
      "attrs": {"num_outputs": "3"}, 
      "inputs": [[751, 0, 0]]
    }, 
    {
      "op": "elemwise_add", 
      "name": "_plus94", 
      "inputs": [[746, 1, 0], [752, 1, 0]]
    }, 
    {
      "op": "Activation", 
      "name": "gru_40_t19__z_act", 
      "attrs": {"act_type": "sigmoid"}, 
      "inputs": [[753, 0, 0]]
    }, 
    {
      "op": "_rminus_scalar", 
      "name": "_rminusscalar55", 
      "attrs": {"scalar": "1.0"}, 
      "inputs": [[754, 0, 0]]
    }, 
    {
      "op": "elemwise_add", 
      "name": "_plus93", 
      "inputs": [[746, 0, 0], [752, 0, 0]]
    }, 
    {
      "op": "Activation", 
      "name": "gru_40_t19__r_act", 
      "attrs": {"act_type": "sigmoid"}, 
      "inputs": [[756, 0, 0]]
    }, 
    {
      "op": "elemwise_mul", 
      "name": "_mul57", 
      "inputs": [[757, 0, 0], [752, 2, 0]]
    }, 
    {
      "op": "elemwise_add", 
      "name": "_plus95", 
      "inputs": [[746, 2, 0], [758, 0, 0]]
    }, 
    {
      "op": "Activation", 
      "name": "gru_40_t19__h_act", 
      "attrs": {"act_type": "tanh"}, 
      "inputs": [[759, 0, 0]]
    }, 
    {
      "op": "elemwise_mul", 
      "name": "_mul58", 
      "inputs": [[755, 0, 0], [760, 0, 0]]
    }, 
    {
      "op": "elemwise_mul", 
      "name": "_mul59", 
      "inputs": [[754, 0, 0], [750, 0, 0]]
    }, 
    {
      "op": "elemwise_add", 
      "name": "gru_40_t19_out", 
      "inputs": [[761, 0, 0], [762, 0, 0]]
    }, 
    {
      "op": "broadcast_mul", 
      "name": "broadcast_mul81", 
      "inputs": [[763, 0, 0], [742, 0, 0]]
    }, 
    {
      "op": "elemwise_add", 
      "name": "_plus96", 
      "inputs": [[744, 0, 0], [764, 0, 0]]
    }, 
    {
      "op": "Reshape", 
      "name": "reshape76", 
      "attrs": {"shape": "(0, 1, 108)"}, 
      "inputs": [[765, 0, 0]]
    }, 
    {
      "op": "Concat", 
      "name": "concat57", 
      "attrs": {
        "dim": "1", 
        "num_args": "2"
      }, 
      "inputs": [[736, 0, 0], [766, 0, 0]]
    }, 
    {
      "op": "slice_axis", 
      "name": "slice_axis49", 
      "attrs": {
        "axis": "1", 
        "begin": "20", 
        "end": "21"
      }, 
      "inputs": [[153, 0, 0]]
    }, 
    {
      "op": "_equal_scalar", 
      "name": "_equal_scalar20", 
      "attrs": {"scalar": "0"}, 
      "inputs": [[768, 0, 0]]
    }, 
    {
      "op": "Reshape", 
      "name": "reshape77", 
      "attrs": {"shape": "(0, 108)"}, 
      "inputs": [[769, 0, 0]]
    }, 
    {
      "op": "sum", 
      "name": "sum22", 
      "attrs": {
        "axis": "1", 
        "keepdims": "True"
      }, 
      "inputs": [[770, 0, 0]]
    }, 
    {
      "op": "_not_equal_scalar", 
      "name": "_not_equal_scalar20", 
      "attrs": {"scalar": "108"}, 
      "inputs": [[771, 0, 0]]
    }, 
    {
      "op": "Reshape", 
      "name": "reshape78", 
      "attrs": {"shape": "(0, 1)"}, 
      "inputs": [[772, 0, 0]]
    }, 
    {
      "op": "_rminus_scalar", 
      "name": "_rminusscalar59", 
      "attrs": {"scalar": "1"}, 
      "inputs": [[773, 0, 0]]
    }, 
    {
      "op": "broadcast_mul", 
      "name": "broadcast_mul84", 
      "inputs": [[765, 0, 0], [774, 0, 0]]
    }, 
    {
      "op": "FullyConnected", 
      "name": "gru_40_t20__i2h", 
      "attrs": {"num_hidden": "324"}, 
      "inputs": [[768, 0, 0], [155, 0, 0], [156, 0, 0]]
    }, 
    {
      "op": "SliceChannel", 
      "name": "gru_40_t20__i2h_slice", 
      "attrs": {"num_outputs": "3"}, 
      "inputs": [[776, 0, 0]]
    }, 
    {
      "op": "_rminus_scalar", 
      "name": "_rminusscalar57", 
      "attrs": {"scalar": "1"}, 
      "inputs": [[742, 0, 0]]
    }, 
    {
      "op": "broadcast_mul", 
      "name": "broadcast_mul82", 
      "inputs": [[750, 0, 0], [778, 0, 0]]
    }, 
    {
      "op": "broadcast_mul", 
      "name": "broadcast_mul83", 
      "inputs": [[763, 0, 0], [742, 0, 0]]
    }, 
    {
      "op": "elemwise_add", 
      "name": "_plus97", 
      "inputs": [[779, 0, 0], [780, 0, 0]]
    }, 
    {
      "op": "FullyConnected", 
      "name": "gru_40_t20__h2h", 
      "attrs": {"num_hidden": "324"}, 
      "inputs": [[781, 0, 0], [160, 0, 0], [161, 0, 0]]
    }, 
    {
      "op": "SliceChannel", 
      "name": "gru_40_t20__h2h_slice", 
      "attrs": {"num_outputs": "3"}, 
      "inputs": [[782, 0, 0]]
    }, 
    {
      "op": "elemwise_add", 
      "name": "_plus99", 
      "inputs": [[777, 1, 0], [783, 1, 0]]
    }, 
    {
      "op": "Activation", 
      "name": "gru_40_t20__z_act", 
      "attrs": {"act_type": "sigmoid"}, 
      "inputs": [[784, 0, 0]]
    }, 
    {
      "op": "_rminus_scalar", 
      "name": "_rminusscalar58", 
      "attrs": {"scalar": "1.0"}, 
      "inputs": [[785, 0, 0]]
    }, 
    {
      "op": "elemwise_add", 
      "name": "_plus98", 
      "inputs": [[777, 0, 0], [783, 0, 0]]
    }, 
    {
      "op": "Activation", 
      "name": "gru_40_t20__r_act", 
      "attrs": {"act_type": "sigmoid"}, 
      "inputs": [[787, 0, 0]]
    }, 
    {
      "op": "elemwise_mul", 
      "name": "_mul60", 
      "inputs": [[788, 0, 0], [783, 2, 0]]
    }, 
    {
      "op": "elemwise_add", 
      "name": "_plus100", 
      "inputs": [[777, 2, 0], [789, 0, 0]]
    }, 
    {
      "op": "Activation", 
      "name": "gru_40_t20__h_act", 
      "attrs": {"act_type": "tanh"}, 
      "inputs": [[790, 0, 0]]
    }, 
    {
      "op": "elemwise_mul", 
      "name": "_mul61", 
      "inputs": [[786, 0, 0], [791, 0, 0]]
    }, 
    {
      "op": "elemwise_mul", 
      "name": "_mul62", 
      "inputs": [[785, 0, 0], [781, 0, 0]]
    }, 
    {
      "op": "elemwise_add", 
      "name": "gru_40_t20_out", 
      "inputs": [[792, 0, 0], [793, 0, 0]]
    }, 
    {
      "op": "broadcast_mul", 
      "name": "broadcast_mul85", 
      "inputs": [[794, 0, 0], [773, 0, 0]]
    }, 
    {
      "op": "elemwise_add", 
      "name": "_plus101", 
      "inputs": [[775, 0, 0], [795, 0, 0]]
    }, 
    {
      "op": "Reshape", 
      "name": "reshape79", 
      "attrs": {"shape": "(0, 1, 108)"}, 
      "inputs": [[796, 0, 0]]
    }, 
    {
      "op": "Concat", 
      "name": "concat59", 
      "attrs": {
        "dim": "1", 
        "num_args": "2"
      }, 
      "inputs": [[767, 0, 0], [797, 0, 0]]
    }, 
    {
      "op": "slice_axis", 
      "name": "slice_axis50", 
      "attrs": {
        "axis": "1", 
        "begin": "21", 
        "end": "22"
      }, 
      "inputs": [[153, 0, 0]]
    }, 
    {
      "op": "_equal_scalar", 
      "name": "_equal_scalar21", 
      "attrs": {"scalar": "0"}, 
      "inputs": [[799, 0, 0]]
    }, 
    {
      "op": "Reshape", 
      "name": "reshape80", 
      "attrs": {"shape": "(0, 108)"}, 
      "inputs": [[800, 0, 0]]
    }, 
    {
      "op": "sum", 
      "name": "sum23", 
      "attrs": {
        "axis": "1", 
        "keepdims": "True"
      }, 
      "inputs": [[801, 0, 0]]
    }, 
    {
      "op": "_not_equal_scalar", 
      "name": "_not_equal_scalar21", 
      "attrs": {"scalar": "108"}, 
      "inputs": [[802, 0, 0]]
    }, 
    {
      "op": "Reshape", 
      "name": "reshape81", 
      "attrs": {"shape": "(0, 1)"}, 
      "inputs": [[803, 0, 0]]
    }, 
    {
      "op": "_rminus_scalar", 
      "name": "_rminusscalar62", 
      "attrs": {"scalar": "1"}, 
      "inputs": [[804, 0, 0]]
    }, 
    {
      "op": "broadcast_mul", 
      "name": "broadcast_mul88", 
      "inputs": [[796, 0, 0], [805, 0, 0]]
    }, 
    {
      "op": "FullyConnected", 
      "name": "gru_40_t21__i2h", 
      "attrs": {"num_hidden": "324"}, 
      "inputs": [[799, 0, 0], [155, 0, 0], [156, 0, 0]]
    }, 
    {
      "op": "SliceChannel", 
      "name": "gru_40_t21__i2h_slice", 
      "attrs": {"num_outputs": "3"}, 
      "inputs": [[807, 0, 0]]
    }, 
    {
      "op": "_rminus_scalar", 
      "name": "_rminusscalar60", 
      "attrs": {"scalar": "1"}, 
      "inputs": [[773, 0, 0]]
    }, 
    {
      "op": "broadcast_mul", 
      "name": "broadcast_mul86", 
      "inputs": [[781, 0, 0], [809, 0, 0]]
    }, 
    {
      "op": "broadcast_mul", 
      "name": "broadcast_mul87", 
      "inputs": [[794, 0, 0], [773, 0, 0]]
    }, 
    {
      "op": "elemwise_add", 
      "name": "_plus102", 
      "inputs": [[810, 0, 0], [811, 0, 0]]
    }, 
    {
      "op": "FullyConnected", 
      "name": "gru_40_t21__h2h", 
      "attrs": {"num_hidden": "324"}, 
      "inputs": [[812, 0, 0], [160, 0, 0], [161, 0, 0]]
    }, 
    {
      "op": "SliceChannel", 
      "name": "gru_40_t21__h2h_slice", 
      "attrs": {"num_outputs": "3"}, 
      "inputs": [[813, 0, 0]]
    }, 
    {
      "op": "elemwise_add", 
      "name": "_plus104", 
      "inputs": [[808, 1, 0], [814, 1, 0]]
    }, 
    {
      "op": "Activation", 
      "name": "gru_40_t21__z_act", 
      "attrs": {"act_type": "sigmoid"}, 
      "inputs": [[815, 0, 0]]
    }, 
    {
      "op": "_rminus_scalar", 
      "name": "_rminusscalar61", 
      "attrs": {"scalar": "1.0"}, 
      "inputs": [[816, 0, 0]]
    }, 
    {
      "op": "elemwise_add", 
      "name": "_plus103", 
      "inputs": [[808, 0, 0], [814, 0, 0]]
    }, 
    {
      "op": "Activation", 
      "name": "gru_40_t21__r_act", 
      "attrs": {"act_type": "sigmoid"}, 
      "inputs": [[818, 0, 0]]
    }, 
    {
      "op": "elemwise_mul", 
      "name": "_mul63", 
      "inputs": [[819, 0, 0], [814, 2, 0]]
    }, 
    {
      "op": "elemwise_add", 
      "name": "_plus105", 
      "inputs": [[808, 2, 0], [820, 0, 0]]
    }, 
    {
      "op": "Activation", 
      "name": "gru_40_t21__h_act", 
      "attrs": {"act_type": "tanh"}, 
      "inputs": [[821, 0, 0]]
    }, 
    {
      "op": "elemwise_mul", 
      "name": "_mul64", 
      "inputs": [[817, 0, 0], [822, 0, 0]]
    }, 
    {
      "op": "elemwise_mul", 
      "name": "_mul65", 
      "inputs": [[816, 0, 0], [812, 0, 0]]
    }, 
    {
      "op": "elemwise_add", 
      "name": "gru_40_t21_out", 
      "inputs": [[823, 0, 0], [824, 0, 0]]
    }, 
    {
      "op": "broadcast_mul", 
      "name": "broadcast_mul89", 
      "inputs": [[825, 0, 0], [804, 0, 0]]
    }, 
    {
      "op": "elemwise_add", 
      "name": "_plus106", 
      "inputs": [[806, 0, 0], [826, 0, 0]]
    }, 
    {
      "op": "Reshape", 
      "name": "reshape82", 
      "attrs": {"shape": "(0, 1, 108)"}, 
      "inputs": [[827, 0, 0]]
    }, 
    {
      "op": "Concat", 
      "name": "concat61", 
      "attrs": {
        "dim": "1", 
        "num_args": "2"
      }, 
      "inputs": [[798, 0, 0], [828, 0, 0]]
    }, 
    {
      "op": "slice_axis", 
      "name": "slice_axis51", 
      "attrs": {
        "axis": "1", 
        "begin": "22", 
        "end": "23"
      }, 
      "inputs": [[153, 0, 0]]
    }, 
    {
      "op": "_equal_scalar", 
      "name": "_equal_scalar22", 
      "attrs": {"scalar": "0"}, 
      "inputs": [[830, 0, 0]]
    }, 
    {
      "op": "Reshape", 
      "name": "reshape83", 
      "attrs": {"shape": "(0, 108)"}, 
      "inputs": [[831, 0, 0]]
    }, 
    {
      "op": "sum", 
      "name": "sum24", 
      "attrs": {
        "axis": "1", 
        "keepdims": "True"
      }, 
      "inputs": [[832, 0, 0]]
    }, 
    {
      "op": "_not_equal_scalar", 
      "name": "_not_equal_scalar22", 
      "attrs": {"scalar": "108"}, 
      "inputs": [[833, 0, 0]]
    }, 
    {
      "op": "Reshape", 
      "name": "reshape84", 
      "attrs": {"shape": "(0, 1)"}, 
      "inputs": [[834, 0, 0]]
    }, 
    {
      "op": "_rminus_scalar", 
      "name": "_rminusscalar65", 
      "attrs": {"scalar": "1"}, 
      "inputs": [[835, 0, 0]]
    }, 
    {
      "op": "broadcast_mul", 
      "name": "broadcast_mul92", 
      "inputs": [[827, 0, 0], [836, 0, 0]]
    }, 
    {
      "op": "FullyConnected", 
      "name": "gru_40_t22__i2h", 
      "attrs": {"num_hidden": "324"}, 
      "inputs": [[830, 0, 0], [155, 0, 0], [156, 0, 0]]
    }, 
    {
      "op": "SliceChannel", 
      "name": "gru_40_t22__i2h_slice", 
      "attrs": {"num_outputs": "3"}, 
      "inputs": [[838, 0, 0]]
    }, 
    {
      "op": "_rminus_scalar", 
      "name": "_rminusscalar63", 
      "attrs": {"scalar": "1"}, 
      "inputs": [[804, 0, 0]]
    }, 
    {
      "op": "broadcast_mul", 
      "name": "broadcast_mul90", 
      "inputs": [[812, 0, 0], [840, 0, 0]]
    }, 
    {
      "op": "broadcast_mul", 
      "name": "broadcast_mul91", 
      "inputs": [[825, 0, 0], [804, 0, 0]]
    }, 
    {
      "op": "elemwise_add", 
      "name": "_plus107", 
      "inputs": [[841, 0, 0], [842, 0, 0]]
    }, 
    {
      "op": "FullyConnected", 
      "name": "gru_40_t22__h2h", 
      "attrs": {"num_hidden": "324"}, 
      "inputs": [[843, 0, 0], [160, 0, 0], [161, 0, 0]]
    }, 
    {
      "op": "SliceChannel", 
      "name": "gru_40_t22__h2h_slice", 
      "attrs": {"num_outputs": "3"}, 
      "inputs": [[844, 0, 0]]
    }, 
    {
      "op": "elemwise_add", 
      "name": "_plus109", 
      "inputs": [[839, 1, 0], [845, 1, 0]]
    }, 
    {
      "op": "Activation", 
      "name": "gru_40_t22__z_act", 
      "attrs": {"act_type": "sigmoid"}, 
      "inputs": [[846, 0, 0]]
    }, 
    {
      "op": "_rminus_scalar", 
      "name": "_rminusscalar64", 
      "attrs": {"scalar": "1.0"}, 
      "inputs": [[847, 0, 0]]
    }, 
    {
      "op": "elemwise_add", 
      "name": "_plus108", 
      "inputs": [[839, 0, 0], [845, 0, 0]]
    }, 
    {
      "op": "Activation", 
      "name": "gru_40_t22__r_act", 
      "attrs": {"act_type": "sigmoid"}, 
      "inputs": [[849, 0, 0]]
    }, 
    {
      "op": "elemwise_mul", 
      "name": "_mul66", 
      "inputs": [[850, 0, 0], [845, 2, 0]]
    }, 
    {
      "op": "elemwise_add", 
      "name": "_plus110", 
      "inputs": [[839, 2, 0], [851, 0, 0]]
    }, 
    {
      "op": "Activation", 
      "name": "gru_40_t22__h_act", 
      "attrs": {"act_type": "tanh"}, 
      "inputs": [[852, 0, 0]]
    }, 
    {
      "op": "elemwise_mul", 
      "name": "_mul67", 
      "inputs": [[848, 0, 0], [853, 0, 0]]
    }, 
    {
      "op": "elemwise_mul", 
      "name": "_mul68", 
      "inputs": [[847, 0, 0], [843, 0, 0]]
    }, 
    {
      "op": "elemwise_add", 
      "name": "gru_40_t22_out", 
      "inputs": [[854, 0, 0], [855, 0, 0]]
    }, 
    {
      "op": "broadcast_mul", 
      "name": "broadcast_mul93", 
      "inputs": [[856, 0, 0], [835, 0, 0]]
    }, 
    {
      "op": "elemwise_add", 
      "name": "_plus111", 
      "inputs": [[837, 0, 0], [857, 0, 0]]
    }, 
    {
      "op": "Reshape", 
      "name": "reshape85", 
      "attrs": {"shape": "(0, 1, 108)"}, 
      "inputs": [[858, 0, 0]]
    }, 
    {
      "op": "Concat", 
      "name": "concat63", 
      "attrs": {
        "dim": "1", 
        "num_args": "2"
      }, 
      "inputs": [[829, 0, 0], [859, 0, 0]]
    }, 
    {
      "op": "slice_axis", 
      "name": "slice_axis52", 
      "attrs": {
        "axis": "1", 
        "begin": "23", 
        "end": "24"
      }, 
      "inputs": [[153, 0, 0]]
    }, 
    {
      "op": "_equal_scalar", 
      "name": "_equal_scalar23", 
      "attrs": {"scalar": "0"}, 
      "inputs": [[861, 0, 0]]
    }, 
    {
      "op": "Reshape", 
      "name": "reshape86", 
      "attrs": {"shape": "(0, 108)"}, 
      "inputs": [[862, 0, 0]]
    }, 
    {
      "op": "sum", 
      "name": "sum25", 
      "attrs": {
        "axis": "1", 
        "keepdims": "True"
      }, 
      "inputs": [[863, 0, 0]]
    }, 
    {
      "op": "_not_equal_scalar", 
      "name": "_not_equal_scalar23", 
      "attrs": {"scalar": "108"}, 
      "inputs": [[864, 0, 0]]
    }, 
    {
      "op": "Reshape", 
      "name": "reshape87", 
      "attrs": {"shape": "(0, 1)"}, 
      "inputs": [[865, 0, 0]]
    }, 
    {
      "op": "_rminus_scalar", 
      "name": "_rminusscalar68", 
      "attrs": {"scalar": "1"}, 
      "inputs": [[866, 0, 0]]
    }, 
    {
      "op": "broadcast_mul", 
      "name": "broadcast_mul96", 
      "inputs": [[858, 0, 0], [867, 0, 0]]
    }, 
    {
      "op": "FullyConnected", 
      "name": "gru_40_t23__i2h", 
      "attrs": {"num_hidden": "324"}, 
      "inputs": [[861, 0, 0], [155, 0, 0], [156, 0, 0]]
    }, 
    {
      "op": "SliceChannel", 
      "name": "gru_40_t23__i2h_slice", 
      "attrs": {"num_outputs": "3"}, 
      "inputs": [[869, 0, 0]]
    }, 
    {
      "op": "_rminus_scalar", 
      "name": "_rminusscalar66", 
      "attrs": {"scalar": "1"}, 
      "inputs": [[835, 0, 0]]
    }, 
    {
      "op": "broadcast_mul", 
      "name": "broadcast_mul94", 
      "inputs": [[843, 0, 0], [871, 0, 0]]
    }, 
    {
      "op": "broadcast_mul", 
      "name": "broadcast_mul95", 
      "inputs": [[856, 0, 0], [835, 0, 0]]
    }, 
    {
      "op": "elemwise_add", 
      "name": "_plus112", 
      "inputs": [[872, 0, 0], [873, 0, 0]]
    }, 
    {
      "op": "FullyConnected", 
      "name": "gru_40_t23__h2h", 
      "attrs": {"num_hidden": "324"}, 
      "inputs": [[874, 0, 0], [160, 0, 0], [161, 0, 0]]
    }, 
    {
      "op": "SliceChannel", 
      "name": "gru_40_t23__h2h_slice", 
      "attrs": {"num_outputs": "3"}, 
      "inputs": [[875, 0, 0]]
    }, 
    {
      "op": "elemwise_add", 
      "name": "_plus114", 
      "inputs": [[870, 1, 0], [876, 1, 0]]
    }, 
    {
      "op": "Activation", 
      "name": "gru_40_t23__z_act", 
      "attrs": {"act_type": "sigmoid"}, 
      "inputs": [[877, 0, 0]]
    }, 
    {
      "op": "_rminus_scalar", 
      "name": "_rminusscalar67", 
      "attrs": {"scalar": "1.0"}, 
      "inputs": [[878, 0, 0]]
    }, 
    {
      "op": "elemwise_add", 
      "name": "_plus113", 
      "inputs": [[870, 0, 0], [876, 0, 0]]
    }, 
    {
      "op": "Activation", 
      "name": "gru_40_t23__r_act", 
      "attrs": {"act_type": "sigmoid"}, 
      "inputs": [[880, 0, 0]]
    }, 
    {
      "op": "elemwise_mul", 
      "name": "_mul69", 
      "inputs": [[881, 0, 0], [876, 2, 0]]
    }, 
    {
      "op": "elemwise_add", 
      "name": "_plus115", 
      "inputs": [[870, 2, 0], [882, 0, 0]]
    }, 
    {
      "op": "Activation", 
      "name": "gru_40_t23__h_act", 
      "attrs": {"act_type": "tanh"}, 
      "inputs": [[883, 0, 0]]
    }, 
    {
      "op": "elemwise_mul", 
      "name": "_mul70", 
      "inputs": [[879, 0, 0], [884, 0, 0]]
    }, 
    {
      "op": "elemwise_mul", 
      "name": "_mul71", 
      "inputs": [[878, 0, 0], [874, 0, 0]]
    }, 
    {
      "op": "elemwise_add", 
      "name": "gru_40_t23_out", 
      "inputs": [[885, 0, 0], [886, 0, 0]]
    }, 
    {
      "op": "broadcast_mul", 
      "name": "broadcast_mul97", 
      "inputs": [[887, 0, 0], [866, 0, 0]]
    }, 
    {
      "op": "elemwise_add", 
      "name": "_plus116", 
      "inputs": [[868, 0, 0], [888, 0, 0]]
    }, 
    {
      "op": "Reshape", 
      "name": "reshape88", 
      "attrs": {"shape": "(0, 1, 108)"}, 
      "inputs": [[889, 0, 0]]
    }, 
    {
      "op": "Concat", 
      "name": "concat65", 
      "attrs": {
        "dim": "1", 
        "num_args": "2"
      }, 
      "inputs": [[860, 0, 0], [890, 0, 0]]
    }, 
    {
      "op": "slice_axis", 
      "name": "slice_axis53", 
      "attrs": {
        "axis": "1", 
        "begin": "24", 
        "end": "25"
      }, 
      "inputs": [[153, 0, 0]]
    }, 
    {
      "op": "_equal_scalar", 
      "name": "_equal_scalar24", 
      "attrs": {"scalar": "0"}, 
      "inputs": [[892, 0, 0]]
    }, 
    {
      "op": "Reshape", 
      "name": "reshape89", 
      "attrs": {"shape": "(0, 108)"}, 
      "inputs": [[893, 0, 0]]
    }, 
    {
      "op": "sum", 
      "name": "sum26", 
      "attrs": {
        "axis": "1", 
        "keepdims": "True"
      }, 
      "inputs": [[894, 0, 0]]
    }, 
    {
      "op": "_not_equal_scalar", 
      "name": "_not_equal_scalar24", 
      "attrs": {"scalar": "108"}, 
      "inputs": [[895, 0, 0]]
    }, 
    {
      "op": "Reshape", 
      "name": "reshape90", 
      "attrs": {"shape": "(0, 1)"}, 
      "inputs": [[896, 0, 0]]
    }, 
    {
      "op": "_rminus_scalar", 
      "name": "_rminusscalar71", 
      "attrs": {"scalar": "1"}, 
      "inputs": [[897, 0, 0]]
    }, 
    {
      "op": "broadcast_mul", 
      "name": "broadcast_mul100", 
      "inputs": [[889, 0, 0], [898, 0, 0]]
    }, 
    {
      "op": "FullyConnected", 
      "name": "gru_40_t24__i2h", 
      "attrs": {"num_hidden": "324"}, 
      "inputs": [[892, 0, 0], [155, 0, 0], [156, 0, 0]]
    }, 
    {
      "op": "SliceChannel", 
      "name": "gru_40_t24__i2h_slice", 
      "attrs": {"num_outputs": "3"}, 
      "inputs": [[900, 0, 0]]
    }, 
    {
      "op": "_rminus_scalar", 
      "name": "_rminusscalar69", 
      "attrs": {"scalar": "1"}, 
      "inputs": [[866, 0, 0]]
    }, 
    {
      "op": "broadcast_mul", 
      "name": "broadcast_mul98", 
      "inputs": [[874, 0, 0], [902, 0, 0]]
    }, 
    {
      "op": "broadcast_mul", 
      "name": "broadcast_mul99", 
      "inputs": [[887, 0, 0], [866, 0, 0]]
    }, 
    {
      "op": "elemwise_add", 
      "name": "_plus117", 
      "inputs": [[903, 0, 0], [904, 0, 0]]
    }, 
    {
      "op": "FullyConnected", 
      "name": "gru_40_t24__h2h", 
      "attrs": {"num_hidden": "324"}, 
      "inputs": [[905, 0, 0], [160, 0, 0], [161, 0, 0]]
    }, 
    {
      "op": "SliceChannel", 
      "name": "gru_40_t24__h2h_slice", 
      "attrs": {"num_outputs": "3"}, 
      "inputs": [[906, 0, 0]]
    }, 
    {
      "op": "elemwise_add", 
      "name": "_plus119", 
      "inputs": [[901, 1, 0], [907, 1, 0]]
    }, 
    {
      "op": "Activation", 
      "name": "gru_40_t24__z_act", 
      "attrs": {"act_type": "sigmoid"}, 
      "inputs": [[908, 0, 0]]
    }, 
    {
      "op": "_rminus_scalar", 
      "name": "_rminusscalar70", 
      "attrs": {"scalar": "1.0"}, 
      "inputs": [[909, 0, 0]]
    }, 
    {
      "op": "elemwise_add", 
      "name": "_plus118", 
      "inputs": [[901, 0, 0], [907, 0, 0]]
    }, 
    {
      "op": "Activation", 
      "name": "gru_40_t24__r_act", 
      "attrs": {"act_type": "sigmoid"}, 
      "inputs": [[911, 0, 0]]
    }, 
    {
      "op": "elemwise_mul", 
      "name": "_mul72", 
      "inputs": [[912, 0, 0], [907, 2, 0]]
    }, 
    {
      "op": "elemwise_add", 
      "name": "_plus120", 
      "inputs": [[901, 2, 0], [913, 0, 0]]
    }, 
    {
      "op": "Activation", 
      "name": "gru_40_t24__h_act", 
      "attrs": {"act_type": "tanh"}, 
      "inputs": [[914, 0, 0]]
    }, 
    {
      "op": "elemwise_mul", 
      "name": "_mul73", 
      "inputs": [[910, 0, 0], [915, 0, 0]]
    }, 
    {
      "op": "elemwise_mul", 
      "name": "_mul74", 
      "inputs": [[909, 0, 0], [905, 0, 0]]
    }, 
    {
      "op": "elemwise_add", 
      "name": "gru_40_t24_out", 
      "inputs": [[916, 0, 0], [917, 0, 0]]
    }, 
    {
      "op": "broadcast_mul", 
      "name": "broadcast_mul101", 
      "inputs": [[918, 0, 0], [897, 0, 0]]
    }, 
    {
      "op": "elemwise_add", 
      "name": "_plus121", 
      "inputs": [[899, 0, 0], [919, 0, 0]]
    }, 
    {
      "op": "Reshape", 
      "name": "reshape91", 
      "attrs": {"shape": "(0, 1, 108)"}, 
      "inputs": [[920, 0, 0]]
    }, 
    {
      "op": "Concat", 
      "name": "concat67", 
      "attrs": {
        "dim": "1", 
        "num_args": "2"
      }, 
      "inputs": [[891, 0, 0], [921, 0, 0]]
    }, 
    {
      "op": "slice_axis", 
      "name": "slice_axis54", 
      "attrs": {
        "axis": "1", 
        "begin": "25", 
        "end": "26"
      }, 
      "inputs": [[153, 0, 0]]
    }, 
    {
      "op": "_equal_scalar", 
      "name": "_equal_scalar25", 
      "attrs": {"scalar": "0"}, 
      "inputs": [[923, 0, 0]]
    }, 
    {
      "op": "Reshape", 
      "name": "reshape92", 
      "attrs": {"shape": "(0, 108)"}, 
      "inputs": [[924, 0, 0]]
    }, 
    {
      "op": "sum", 
      "name": "sum27", 
      "attrs": {
        "axis": "1", 
        "keepdims": "True"
      }, 
      "inputs": [[925, 0, 0]]
    }, 
    {
      "op": "_not_equal_scalar", 
      "name": "_not_equal_scalar25", 
      "attrs": {"scalar": "108"}, 
      "inputs": [[926, 0, 0]]
    }, 
    {
      "op": "Reshape", 
      "name": "reshape93", 
      "attrs": {"shape": "(0, 1)"}, 
      "inputs": [[927, 0, 0]]
    }, 
    {
      "op": "_rminus_scalar", 
      "name": "_rminusscalar74", 
      "attrs": {"scalar": "1"}, 
      "inputs": [[928, 0, 0]]
    }, 
    {
      "op": "broadcast_mul", 
      "name": "broadcast_mul104", 
      "inputs": [[920, 0, 0], [929, 0, 0]]
    }, 
    {
      "op": "FullyConnected", 
      "name": "gru_40_t25__i2h", 
      "attrs": {"num_hidden": "324"}, 
      "inputs": [[923, 0, 0], [155, 0, 0], [156, 0, 0]]
    }, 
    {
      "op": "SliceChannel", 
      "name": "gru_40_t25__i2h_slice", 
      "attrs": {"num_outputs": "3"}, 
      "inputs": [[931, 0, 0]]
    }, 
    {
      "op": "_rminus_scalar", 
      "name": "_rminusscalar72", 
      "attrs": {"scalar": "1"}, 
      "inputs": [[897, 0, 0]]
    }, 
    {
      "op": "broadcast_mul", 
      "name": "broadcast_mul102", 
      "inputs": [[905, 0, 0], [933, 0, 0]]
    }, 
    {
      "op": "broadcast_mul", 
      "name": "broadcast_mul103", 
      "inputs": [[918, 0, 0], [897, 0, 0]]
    }, 
    {
      "op": "elemwise_add", 
      "name": "_plus122", 
      "inputs": [[934, 0, 0], [935, 0, 0]]
    }, 
    {
      "op": "FullyConnected", 
      "name": "gru_40_t25__h2h", 
      "attrs": {"num_hidden": "324"}, 
      "inputs": [[936, 0, 0], [160, 0, 0], [161, 0, 0]]
    }, 
    {
      "op": "SliceChannel", 
      "name": "gru_40_t25__h2h_slice", 
      "attrs": {"num_outputs": "3"}, 
      "inputs": [[937, 0, 0]]
    }, 
    {
      "op": "elemwise_add", 
      "name": "_plus124", 
      "inputs": [[932, 1, 0], [938, 1, 0]]
    }, 
    {
      "op": "Activation", 
      "name": "gru_40_t25__z_act", 
      "attrs": {"act_type": "sigmoid"}, 
      "inputs": [[939, 0, 0]]
    }, 
    {
      "op": "_rminus_scalar", 
      "name": "_rminusscalar73", 
      "attrs": {"scalar": "1.0"}, 
      "inputs": [[940, 0, 0]]
    }, 
    {
      "op": "elemwise_add", 
      "name": "_plus123", 
      "inputs": [[932, 0, 0], [938, 0, 0]]
    }, 
    {
      "op": "Activation", 
      "name": "gru_40_t25__r_act", 
      "attrs": {"act_type": "sigmoid"}, 
      "inputs": [[942, 0, 0]]
    }, 
    {
      "op": "elemwise_mul", 
      "name": "_mul75", 
      "inputs": [[943, 0, 0], [938, 2, 0]]
    }, 
    {
      "op": "elemwise_add", 
      "name": "_plus125", 
      "inputs": [[932, 2, 0], [944, 0, 0]]
    }, 
    {
      "op": "Activation", 
      "name": "gru_40_t25__h_act", 
      "attrs": {"act_type": "tanh"}, 
      "inputs": [[945, 0, 0]]
    }, 
    {
      "op": "elemwise_mul", 
      "name": "_mul76", 
      "inputs": [[941, 0, 0], [946, 0, 0]]
    }, 
    {
      "op": "elemwise_mul", 
      "name": "_mul77", 
      "inputs": [[940, 0, 0], [936, 0, 0]]
    }, 
    {
      "op": "elemwise_add", 
      "name": "gru_40_t25_out", 
      "inputs": [[947, 0, 0], [948, 0, 0]]
    }, 
    {
      "op": "broadcast_mul", 
      "name": "broadcast_mul105", 
      "inputs": [[949, 0, 0], [928, 0, 0]]
    }, 
    {
      "op": "elemwise_add", 
      "name": "_plus126", 
      "inputs": [[930, 0, 0], [950, 0, 0]]
    }, 
    {
      "op": "Reshape", 
      "name": "reshape94", 
      "attrs": {"shape": "(0, 1, 108)"}, 
      "inputs": [[951, 0, 0]]
    }, 
    {
      "op": "Concat", 
      "name": "concat69", 
      "attrs": {
        "dim": "1", 
        "num_args": "2"
      }, 
      "inputs": [[922, 0, 0], [952, 0, 0]]
    }, 
    {
      "op": "slice_axis", 
      "name": "slice_axis55", 
      "attrs": {
        "axis": "1", 
        "begin": "26", 
        "end": "27"
      }, 
      "inputs": [[153, 0, 0]]
    }, 
    {
      "op": "_equal_scalar", 
      "name": "_equal_scalar26", 
      "attrs": {"scalar": "0"}, 
      "inputs": [[954, 0, 0]]
    }, 
    {
      "op": "Reshape", 
      "name": "reshape95", 
      "attrs": {"shape": "(0, 108)"}, 
      "inputs": [[955, 0, 0]]
    }, 
    {
      "op": "sum", 
      "name": "sum28", 
      "attrs": {
        "axis": "1", 
        "keepdims": "True"
      }, 
      "inputs": [[956, 0, 0]]
    }, 
    {
      "op": "_not_equal_scalar", 
      "name": "_not_equal_scalar26", 
      "attrs": {"scalar": "108"}, 
      "inputs": [[957, 0, 0]]
    }, 
    {
      "op": "Reshape", 
      "name": "reshape96", 
      "attrs": {"shape": "(0, 1)"}, 
      "inputs": [[958, 0, 0]]
    }, 
    {
      "op": "_rminus_scalar", 
      "name": "_rminusscalar77", 
      "attrs": {"scalar": "1"}, 
      "inputs": [[959, 0, 0]]
    }, 
    {
      "op": "broadcast_mul", 
      "name": "broadcast_mul108", 
      "inputs": [[951, 0, 0], [960, 0, 0]]
    }, 
    {
      "op": "FullyConnected", 
      "name": "gru_40_t26__i2h", 
      "attrs": {"num_hidden": "324"}, 
      "inputs": [[954, 0, 0], [155, 0, 0], [156, 0, 0]]
    }, 
    {
      "op": "SliceChannel", 
      "name": "gru_40_t26__i2h_slice", 
      "attrs": {"num_outputs": "3"}, 
      "inputs": [[962, 0, 0]]
    }, 
    {
      "op": "_rminus_scalar", 
      "name": "_rminusscalar75", 
      "attrs": {"scalar": "1"}, 
      "inputs": [[928, 0, 0]]
    }, 
    {
      "op": "broadcast_mul", 
      "name": "broadcast_mul106", 
      "inputs": [[936, 0, 0], [964, 0, 0]]
    }, 
    {
      "op": "broadcast_mul", 
      "name": "broadcast_mul107", 
      "inputs": [[949, 0, 0], [928, 0, 0]]
    }, 
    {
      "op": "elemwise_add", 
      "name": "_plus127", 
      "inputs": [[965, 0, 0], [966, 0, 0]]
    }, 
    {
      "op": "FullyConnected", 
      "name": "gru_40_t26__h2h", 
      "attrs": {"num_hidden": "324"}, 
      "inputs": [[967, 0, 0], [160, 0, 0], [161, 0, 0]]
    }, 
    {
      "op": "SliceChannel", 
      "name": "gru_40_t26__h2h_slice", 
      "attrs": {"num_outputs": "3"}, 
      "inputs": [[968, 0, 0]]
    }, 
    {
      "op": "elemwise_add", 
      "name": "_plus129", 
      "inputs": [[963, 1, 0], [969, 1, 0]]
    }, 
    {
      "op": "Activation", 
      "name": "gru_40_t26__z_act", 
      "attrs": {"act_type": "sigmoid"}, 
      "inputs": [[970, 0, 0]]
    }, 
    {
      "op": "_rminus_scalar", 
      "name": "_rminusscalar76", 
      "attrs": {"scalar": "1.0"}, 
      "inputs": [[971, 0, 0]]
    }, 
    {
      "op": "elemwise_add", 
      "name": "_plus128", 
      "inputs": [[963, 0, 0], [969, 0, 0]]
    }, 
    {
      "op": "Activation", 
      "name": "gru_40_t26__r_act", 
      "attrs": {"act_type": "sigmoid"}, 
      "inputs": [[973, 0, 0]]
    }, 
    {
      "op": "elemwise_mul", 
      "name": "_mul78", 
      "inputs": [[974, 0, 0], [969, 2, 0]]
    }, 
    {
      "op": "elemwise_add", 
      "name": "_plus130", 
      "inputs": [[963, 2, 0], [975, 0, 0]]
    }, 
    {
      "op": "Activation", 
      "name": "gru_40_t26__h_act", 
      "attrs": {"act_type": "tanh"}, 
      "inputs": [[976, 0, 0]]
    }, 
    {
      "op": "elemwise_mul", 
      "name": "_mul79", 
      "inputs": [[972, 0, 0], [977, 0, 0]]
    }, 
    {
      "op": "elemwise_mul", 
      "name": "_mul80", 
      "inputs": [[971, 0, 0], [967, 0, 0]]
    }, 
    {
      "op": "elemwise_add", 
      "name": "gru_40_t26_out", 
      "inputs": [[978, 0, 0], [979, 0, 0]]
    }, 
    {
      "op": "broadcast_mul", 
      "name": "broadcast_mul109", 
      "inputs": [[980, 0, 0], [959, 0, 0]]
    }, 
    {
      "op": "elemwise_add", 
      "name": "_plus131", 
      "inputs": [[961, 0, 0], [981, 0, 0]]
    }, 
    {
      "op": "Reshape", 
      "name": "reshape97", 
      "attrs": {"shape": "(0, 1, 108)"}, 
      "inputs": [[982, 0, 0]]
    }, 
    {
      "op": "Concat", 
      "name": "concat71", 
      "attrs": {
        "dim": "1", 
        "num_args": "2"
      }, 
      "inputs": [[953, 0, 0], [983, 0, 0]]
    }, 
    {
      "op": "slice_axis", 
      "name": "slice_axis56", 
      "attrs": {
        "axis": "1", 
        "begin": "27", 
        "end": "28"
      }, 
      "inputs": [[153, 0, 0]]
    }, 
    {
      "op": "_equal_scalar", 
      "name": "_equal_scalar27", 
      "attrs": {"scalar": "0"}, 
      "inputs": [[985, 0, 0]]
    }, 
    {
      "op": "Reshape", 
      "name": "reshape98", 
      "attrs": {"shape": "(0, 108)"}, 
      "inputs": [[986, 0, 0]]
    }, 
    {
      "op": "sum", 
      "name": "sum29", 
      "attrs": {
        "axis": "1", 
        "keepdims": "True"
      }, 
      "inputs": [[987, 0, 0]]
    }, 
    {
      "op": "_not_equal_scalar", 
      "name": "_not_equal_scalar27", 
      "attrs": {"scalar": "108"}, 
      "inputs": [[988, 0, 0]]
    }, 
    {
      "op": "Reshape", 
      "name": "reshape99", 
      "attrs": {"shape": "(0, 1)"}, 
      "inputs": [[989, 0, 0]]
    }, 
    {
      "op": "_rminus_scalar", 
      "name": "_rminusscalar80", 
      "attrs": {"scalar": "1"}, 
      "inputs": [[990, 0, 0]]
    }, 
    {
      "op": "broadcast_mul", 
      "name": "broadcast_mul112", 
      "inputs": [[982, 0, 0], [991, 0, 0]]
    }, 
    {
      "op": "FullyConnected", 
      "name": "gru_40_t27__i2h", 
      "attrs": {"num_hidden": "324"}, 
      "inputs": [[985, 0, 0], [155, 0, 0], [156, 0, 0]]
    }, 
    {
      "op": "SliceChannel", 
      "name": "gru_40_t27__i2h_slice", 
      "attrs": {"num_outputs": "3"}, 
      "inputs": [[993, 0, 0]]
    }, 
    {
      "op": "_rminus_scalar", 
      "name": "_rminusscalar78", 
      "attrs": {"scalar": "1"}, 
      "inputs": [[959, 0, 0]]
    }, 
    {
      "op": "broadcast_mul", 
      "name": "broadcast_mul110", 
      "inputs": [[967, 0, 0], [995, 0, 0]]
    }, 
    {
      "op": "broadcast_mul", 
      "name": "broadcast_mul111", 
      "inputs": [[980, 0, 0], [959, 0, 0]]
    }, 
    {
      "op": "elemwise_add", 
      "name": "_plus132", 
      "inputs": [[996, 0, 0], [997, 0, 0]]
    }, 
    {
      "op": "FullyConnected", 
      "name": "gru_40_t27__h2h", 
      "attrs": {"num_hidden": "324"}, 
      "inputs": [[998, 0, 0], [160, 0, 0], [161, 0, 0]]
    }, 
    {
      "op": "SliceChannel", 
      "name": "gru_40_t27__h2h_slice", 
      "attrs": {"num_outputs": "3"}, 
      "inputs": [[999, 0, 0]]
    }, 
    {
      "op": "elemwise_add", 
      "name": "_plus134", 
      "inputs": [[994, 1, 0], [1000, 1, 0]]
    }, 
    {
      "op": "Activation", 
      "name": "gru_40_t27__z_act", 
      "attrs": {"act_type": "sigmoid"}, 
      "inputs": [[1001, 0, 0]]
    }, 
    {
      "op": "_rminus_scalar", 
      "name": "_rminusscalar79", 
      "attrs": {"scalar": "1.0"}, 
      "inputs": [[1002, 0, 0]]
    }, 
    {
      "op": "elemwise_add", 
      "name": "_plus133", 
      "inputs": [[994, 0, 0], [1000, 0, 0]]
    }, 
    {
      "op": "Activation", 
      "name": "gru_40_t27__r_act", 
      "attrs": {"act_type": "sigmoid"}, 
      "inputs": [[1004, 0, 0]]
    }, 
    {
      "op": "elemwise_mul", 
      "name": "_mul81", 
      "inputs": [[1005, 0, 0], [1000, 2, 0]]
    }, 
    {
      "op": "elemwise_add", 
      "name": "_plus135", 
      "inputs": [[994, 2, 0], [1006, 0, 0]]
    }, 
    {
      "op": "Activation", 
      "name": "gru_40_t27__h_act", 
      "attrs": {"act_type": "tanh"}, 
      "inputs": [[1007, 0, 0]]
    }, 
    {
      "op": "elemwise_mul", 
      "name": "_mul82", 
      "inputs": [[1003, 0, 0], [1008, 0, 0]]
    }, 
    {
      "op": "elemwise_mul", 
      "name": "_mul83", 
      "inputs": [[1002, 0, 0], [998, 0, 0]]
    }, 
    {
      "op": "elemwise_add", 
      "name": "gru_40_t27_out", 
      "inputs": [[1009, 0, 0], [1010, 0, 0]]
    }, 
    {
      "op": "broadcast_mul", 
      "name": "broadcast_mul113", 
      "inputs": [[1011, 0, 0], [990, 0, 0]]
    }, 
    {
      "op": "elemwise_add", 
      "name": "_plus136", 
      "inputs": [[992, 0, 0], [1012, 0, 0]]
    }, 
    {
      "op": "Reshape", 
      "name": "reshape100", 
      "attrs": {"shape": "(0, 1, 108)"}, 
      "inputs": [[1013, 0, 0]]
    }, 
    {
      "op": "Concat", 
      "name": "concat73", 
      "attrs": {
        "dim": "1", 
        "num_args": "2"
      }, 
      "inputs": [[984, 0, 0], [1014, 0, 0]]
    }, 
    {
      "op": "slice_axis", 
      "name": "slice_axis57", 
      "attrs": {
        "axis": "1", 
        "begin": "28", 
        "end": "29"
      }, 
      "inputs": [[153, 0, 0]]
    }, 
    {
      "op": "_equal_scalar", 
      "name": "_equal_scalar28", 
      "attrs": {"scalar": "0"}, 
      "inputs": [[1016, 0, 0]]
    }, 
    {
      "op": "Reshape", 
      "name": "reshape101", 
      "attrs": {"shape": "(0, 108)"}, 
      "inputs": [[1017, 0, 0]]
    }, 
    {
      "op": "sum", 
      "name": "sum30", 
      "attrs": {
        "axis": "1", 
        "keepdims": "True"
      }, 
      "inputs": [[1018, 0, 0]]
    }, 
    {
      "op": "_not_equal_scalar", 
      "name": "_not_equal_scalar28", 
      "attrs": {"scalar": "108"}, 
      "inputs": [[1019, 0, 0]]
    }, 
    {
      "op": "Reshape", 
      "name": "reshape102", 
      "attrs": {"shape": "(0, 1)"}, 
      "inputs": [[1020, 0, 0]]
    }, 
    {
      "op": "_rminus_scalar", 
      "name": "_rminusscalar83", 
      "attrs": {"scalar": "1"}, 
      "inputs": [[1021, 0, 0]]
    }, 
    {
      "op": "broadcast_mul", 
      "name": "broadcast_mul116", 
      "inputs": [[1013, 0, 0], [1022, 0, 0]]
    }, 
    {
      "op": "FullyConnected", 
      "name": "gru_40_t28__i2h", 
      "attrs": {"num_hidden": "324"}, 
      "inputs": [[1016, 0, 0], [155, 0, 0], [156, 0, 0]]
    }, 
    {
      "op": "SliceChannel", 
      "name": "gru_40_t28__i2h_slice", 
      "attrs": {"num_outputs": "3"}, 
      "inputs": [[1024, 0, 0]]
    }, 
    {
      "op": "_rminus_scalar", 
      "name": "_rminusscalar81", 
      "attrs": {"scalar": "1"}, 
      "inputs": [[990, 0, 0]]
    }, 
    {
      "op": "broadcast_mul", 
      "name": "broadcast_mul114", 
      "inputs": [[998, 0, 0], [1026, 0, 0]]
    }, 
    {
      "op": "broadcast_mul", 
      "name": "broadcast_mul115", 
      "inputs": [[1011, 0, 0], [990, 0, 0]]
    }, 
    {
      "op": "elemwise_add", 
      "name": "_plus137", 
      "inputs": [[1027, 0, 0], [1028, 0, 0]]
    }, 
    {
      "op": "FullyConnected", 
      "name": "gru_40_t28__h2h", 
      "attrs": {"num_hidden": "324"}, 
      "inputs": [[1029, 0, 0], [160, 0, 0], [161, 0, 0]]
    }, 
    {
      "op": "SliceChannel", 
      "name": "gru_40_t28__h2h_slice", 
      "attrs": {"num_outputs": "3"}, 
      "inputs": [[1030, 0, 0]]
    }, 
    {
      "op": "elemwise_add", 
      "name": "_plus139", 
      "inputs": [[1025, 1, 0], [1031, 1, 0]]
    }, 
    {
      "op": "Activation", 
      "name": "gru_40_t28__z_act", 
      "attrs": {"act_type": "sigmoid"}, 
      "inputs": [[1032, 0, 0]]
    }, 
    {
      "op": "_rminus_scalar", 
      "name": "_rminusscalar82", 
      "attrs": {"scalar": "1.0"}, 
      "inputs": [[1033, 0, 0]]
    }, 
    {
      "op": "elemwise_add", 
      "name": "_plus138", 
      "inputs": [[1025, 0, 0], [1031, 0, 0]]
    }, 
    {
      "op": "Activation", 
      "name": "gru_40_t28__r_act", 
      "attrs": {"act_type": "sigmoid"}, 
      "inputs": [[1035, 0, 0]]
    }, 
    {
      "op": "elemwise_mul", 
      "name": "_mul84", 
      "inputs": [[1036, 0, 0], [1031, 2, 0]]
    }, 
    {
      "op": "elemwise_add", 
      "name": "_plus140", 
      "inputs": [[1025, 2, 0], [1037, 0, 0]]
    }, 
    {
      "op": "Activation", 
      "name": "gru_40_t28__h_act", 
      "attrs": {"act_type": "tanh"}, 
      "inputs": [[1038, 0, 0]]
    }, 
    {
      "op": "elemwise_mul", 
      "name": "_mul85", 
      "inputs": [[1034, 0, 0], [1039, 0, 0]]
    }, 
    {
      "op": "elemwise_mul", 
      "name": "_mul86", 
      "inputs": [[1033, 0, 0], [1029, 0, 0]]
    }, 
    {
      "op": "elemwise_add", 
      "name": "gru_40_t28_out", 
      "inputs": [[1040, 0, 0], [1041, 0, 0]]
    }, 
    {
      "op": "broadcast_mul", 
      "name": "broadcast_mul117", 
      "inputs": [[1042, 0, 0], [1021, 0, 0]]
    }, 
    {
      "op": "elemwise_add", 
      "name": "_plus141", 
      "inputs": [[1023, 0, 0], [1043, 0, 0]]
    }, 
    {
      "op": "Reshape", 
      "name": "reshape103", 
      "attrs": {"shape": "(0, 1, 108)"}, 
      "inputs": [[1044, 0, 0]]
    }, 
    {
      "op": "Concat", 
      "name": "concat75", 
      "attrs": {
        "dim": "1", 
        "num_args": "2"
      }, 
      "inputs": [[1015, 0, 0], [1045, 0, 0]]
    }, 
    {
      "op": "slice_axis", 
      "name": "slice_axis58", 
      "attrs": {
        "axis": "1", 
        "begin": "29", 
        "end": "30"
      }, 
      "inputs": [[153, 0, 0]]
    }, 
    {
      "op": "_equal_scalar", 
      "name": "_equal_scalar29", 
      "attrs": {"scalar": "0"}, 
      "inputs": [[1047, 0, 0]]
    }, 
    {
      "op": "Reshape", 
      "name": "reshape104", 
      "attrs": {"shape": "(0, 108)"}, 
      "inputs": [[1048, 0, 0]]
    }, 
    {
      "op": "sum", 
      "name": "sum31", 
      "attrs": {
        "axis": "1", 
        "keepdims": "True"
      }, 
      "inputs": [[1049, 0, 0]]
    }, 
    {
      "op": "_not_equal_scalar", 
      "name": "_not_equal_scalar29", 
      "attrs": {"scalar": "108"}, 
      "inputs": [[1050, 0, 0]]
    }, 
    {
      "op": "Reshape", 
      "name": "reshape105", 
      "attrs": {"shape": "(0, 1)"}, 
      "inputs": [[1051, 0, 0]]
    }, 
    {
      "op": "_rminus_scalar", 
      "name": "_rminusscalar86", 
      "attrs": {"scalar": "1"}, 
      "inputs": [[1052, 0, 0]]
    }, 
    {
      "op": "broadcast_mul", 
      "name": "broadcast_mul120", 
      "inputs": [[1044, 0, 0], [1053, 0, 0]]
    }, 
    {
      "op": "FullyConnected", 
      "name": "gru_40_t29__i2h", 
      "attrs": {"num_hidden": "324"}, 
      "inputs": [[1047, 0, 0], [155, 0, 0], [156, 0, 0]]
    }, 
    {
      "op": "SliceChannel", 
      "name": "gru_40_t29__i2h_slice", 
      "attrs": {"num_outputs": "3"}, 
      "inputs": [[1055, 0, 0]]
    }, 
    {
      "op": "_rminus_scalar", 
      "name": "_rminusscalar84", 
      "attrs": {"scalar": "1"}, 
      "inputs": [[1021, 0, 0]]
    }, 
    {
      "op": "broadcast_mul", 
      "name": "broadcast_mul118", 
      "inputs": [[1029, 0, 0], [1057, 0, 0]]
    }, 
    {
      "op": "broadcast_mul", 
      "name": "broadcast_mul119", 
      "inputs": [[1042, 0, 0], [1021, 0, 0]]
    }, 
    {
      "op": "elemwise_add", 
      "name": "_plus142", 
      "inputs": [[1058, 0, 0], [1059, 0, 0]]
    }, 
    {
      "op": "FullyConnected", 
      "name": "gru_40_t29__h2h", 
      "attrs": {"num_hidden": "324"}, 
      "inputs": [[1060, 0, 0], [160, 0, 0], [161, 0, 0]]
    }, 
    {
      "op": "SliceChannel", 
      "name": "gru_40_t29__h2h_slice", 
      "attrs": {"num_outputs": "3"}, 
      "inputs": [[1061, 0, 0]]
    }, 
    {
      "op": "elemwise_add", 
      "name": "_plus144", 
      "inputs": [[1056, 1, 0], [1062, 1, 0]]
    }, 
    {
      "op": "Activation", 
      "name": "gru_40_t29__z_act", 
      "attrs": {"act_type": "sigmoid"}, 
      "inputs": [[1063, 0, 0]]
    }, 
    {
      "op": "_rminus_scalar", 
      "name": "_rminusscalar85", 
      "attrs": {"scalar": "1.0"}, 
      "inputs": [[1064, 0, 0]]
    }, 
    {
      "op": "elemwise_add", 
      "name": "_plus143", 
      "inputs": [[1056, 0, 0], [1062, 0, 0]]
    }, 
    {
      "op": "Activation", 
      "name": "gru_40_t29__r_act", 
      "attrs": {"act_type": "sigmoid"}, 
      "inputs": [[1066, 0, 0]]
    }, 
    {
      "op": "elemwise_mul", 
      "name": "_mul87", 
      "inputs": [[1067, 0, 0], [1062, 2, 0]]
    }, 
    {
      "op": "elemwise_add", 
      "name": "_plus145", 
      "inputs": [[1056, 2, 0], [1068, 0, 0]]
    }, 
    {
      "op": "Activation", 
      "name": "gru_40_t29__h_act", 
      "attrs": {"act_type": "tanh"}, 
      "inputs": [[1069, 0, 0]]
    }, 
    {
      "op": "elemwise_mul", 
…
        "eps": "0.0001", 
        "fix_gamma": "True", 
        "momentum": "0.99"
      }, 
      "inputs": []
    }, 
    {
      "op": "BatchNorm", 
      "name": "bn_1", 
      "attrs": {
        "eps": "0.0001", 
        "fix_gamma": "True", 
        "momentum": "0.99"
      }, 
      "inputs": [[3455, 0, 0], [3456, 0, 0], [3457, 0, 0], [3458, 0, 1], [3459, 0, 1]]
    }, 
    {
      "op": "Activation", 
      "name": "dice_sigmoid_1", 
      "attrs": {"act_type": "sigmoid"}, 
      "inputs": [[3460, 0, 0]]
    }, 
    {
      "op": "_rminus_scalar", 
      "name": "_rminusscalar296", 
      "attrs": {"scalar": "1.0"}, 
      "inputs": [[3461, 0, 0]]
    }, 
    {
      "op": "elemwise_mul", 
      "name": "_mul302", 
      "inputs": [[3462, 0, 0], [3455, 0, 0]]
    }, 
    {
      "op": "broadcast_mul", 
      "name": "broadcast_mul414", 
      "inputs": [[4, 0, 0], [3463, 0, 0]]
    }, 
    {
      "op": "elemwise_mul", 
      "name": "_mul303", 
      "inputs": [[3461, 0, 0], [3455, 0, 0]]
    }, 
    {
      "op": "elemwise_add", 
      "name": "_plus497", 
      "inputs": [[3464, 0, 0], [3465, 0, 0]]
    }, 
    {
      "op": "null", 
      "name": "fc_2_weight", 
      "attrs": {"num_hidden": "400"}, 
      "inputs": []
    }, 
    {
      "op": "null", 
      "name": "fc_2_bias", 
      "attrs": {"num_hidden": "400"}, 
      "inputs": []
    }, 
    {
      "op": "FullyConnected", 
      "name": "fc_2", 
      "attrs": {"num_hidden": "400"}, 
      "inputs": [[3466, 0, 0], [3467, 0, 0], [3468, 0, 0]]
    }, 
    {
      "op": "null", 
      "name": "bn_2_gamma", 
      "attrs": {
        "eps": "0.0001", 
        "fix_gamma": "True", 
        "momentum": "0.99"
      }, 
      "inputs": []
    }, 
    {
      "op": "null", 
      "name": "bn_2_beta", 
      "attrs": {
        "eps": "0.0001", 
        "fix_gamma": "True", 
        "momentum": "0.99"
      }, 
      "inputs": []
    }, 
    {
      "op": "null", 
      "name": "bn_2_moving_mean", 
      "attrs": {
        "__init__": "[\"zero\", {}]", 
        "eps": "0.0001", 
        "fix_gamma": "True", 
        "momentum": "0.99"
      }, 
      "inputs": []
    }, 
    {
      "op": "null", 
      "name": "bn_2_moving_var", 
      "attrs": {
        "__init__": "[\"one\", {}]", 
        "eps": "0.0001", 
        "fix_gamma": "True", 
        "momentum": "0.99"
      }, 
      "inputs": []
    }, 
    {
      "op": "BatchNorm", 
      "name": "bn_2", 
      "attrs": {
        "eps": "0.0001", 
        "fix_gamma": "True", 
        "momentum": "0.99"
      }, 
      "inputs": [[3469, 0, 0], [3470, 0, 0], [3471, 0, 0], [3472, 0, 1], [3473, 0, 1]]
    }, 
    {
      "op": "Activation", 
      "name": "dice_sigmoid_2", 
      "attrs": {"act_type": "sigmoid"}, 
      "inputs": [[3474, 0, 0]]
    }, 
    {
      "op": "_rminus_scalar", 
      "name": "_rminusscalar297", 
      "attrs": {"scalar": "1.0"}, 
      "inputs": [[3475, 0, 0]]
    }, 
    {
      "op": "elemwise_mul", 
      "name": "_mul304", 
      "inputs": [[3476, 0, 0], [3469, 0, 0]]
    }, 
    {
      "op": "broadcast_mul", 
      "name": "broadcast_mul415", 
      "inputs": [[3, 0, 0], [3477, 0, 0]]
    }, 
    {
      "op": "elemwise_mul", 
      "name": "_mul305", 
      "inputs": [[3475, 0, 0], [3469, 0, 0]]
    }, 
    {
      "op": "elemwise_add", 
      "name": "_plus498", 
      "inputs": [[3478, 0, 0], [3479, 0, 0]]
    }, 
    {
      "op": "null", 
      "name": "fc_3_weight", 
      "attrs": {"num_hidden": "300"}, 
      "inputs": []
    }, 
    {
      "op": "null", 
      "name": "fc_3_bias", 
      "attrs": {"num_hidden": "300"}, 
      "inputs": []
    }, 
    {
      "op": "FullyConnected", 
      "name": "fc_3", 
      "attrs": {"num_hidden": "300"}, 
      "inputs": [[3480, 0, 0], [3481, 0, 0], [3482, 0, 0]]
    }, 
    {
      "op": "null", 
      "name": "bn_3_gamma", 
      "attrs": {
        "eps": "0.0001", 
        "fix_gamma": "True", 
        "momentum": "0.99"
      }, 
      "inputs": []
    }, 
    {
      "op": "null", 
      "name": "bn_3_beta", 
      "attrs": {
        "eps": "0.0001", 
        "fix_gamma": "True", 
        "momentum": "0.99"
      }, 
      "inputs": []
    }, 
    {
      "op": "null", 
      "name": "bn_3_moving_mean", 
      "attrs": {
        "__init__": "[\"zero\", {}]", 
        "eps": "0.0001", 
        "fix_gamma": "True", 
        "momentum": "0.99"
      }, 
      "inputs": []
    }, 
    {
      "op": "null", 
      "name": "bn_3_moving_var", 
      "attrs": {
        "__init__": "[\"one\", {}]", 
        "eps": "0.0001", 
        "fix_gamma": "True", 
        "momentum": "0.99"
      }, 
      "inputs": []
    }, 
    {
      "op": "BatchNorm", 
      "name": "bn_3", 
      "attrs": {
        "eps": "0.0001", 
        "fix_gamma": "True", 
        "momentum": "0.99"
      }, 
      "inputs": [[3483, 0, 0], [3484, 0, 0], [3485, 0, 0], [3486, 0, 1], [3487, 0, 1]]
    }, 
    {
      "op": "Activation", 
      "name": "dice_sigmoid_3", 
      "attrs": {"act_type": "sigmoid"}, 
      "inputs": [[3488, 0, 0]]
    }, 
    {
      "op": "_rminus_scalar", 
      "name": "_rminusscalar298", 
      "attrs": {"scalar": "1.0"}, 
      "inputs": [[3489, 0, 0]]
    }, 
    {
      "op": "elemwise_mul", 
      "name": "_mul306", 
      "inputs": [[3490, 0, 0], [3483, 0, 0]]
    }, 
    {
      "op": "broadcast_mul", 
      "name": "broadcast_mul416", 
      "inputs": [[2, 0, 0], [3491, 0, 0]]
    }, 
    {
      "op": "elemwise_mul", 
      "name": "_mul307", 
      "inputs": [[3489, 0, 0], [3483, 0, 0]]
    }, 
    {
      "op": "elemwise_add", 
      "name": "_plus499", 
      "inputs": [[3492, 0, 0], [3493, 0, 0]]
    }, 
    {
      "op": "null", 
      "name": "fc_4_weight", 
      "attrs": {"num_hidden": "200"}, 
      "inputs": []
    }, 
    {
      "op": "null", 
      "name": "fc_4_bias", 
      "attrs": {"num_hidden": "200"}, 
      "inputs": []
    }, 
    {
      "op": "FullyConnected", 
      "name": "fc_4", 
      "attrs": {"num_hidden": "200"}, 
      "inputs": [[3494, 0, 0], [3495, 0, 0], [3496, 0, 0]]
    }, 
    {
      "op": "null", 
      "name": "bn_4_gamma", 
      "attrs": {
        "eps": "0.0001", 
        "fix_gamma": "True", 
        "momentum": "0.99"
      }, 
      "inputs": []
    }, 
    {
      "op": "null", 
      "name": "bn_4_beta", 
      "attrs": {
        "eps": "0.0001", 
        "fix_gamma": "True", 
        "momentum": "0.99"
      }, 
      "inputs": []
    }, 
    {
      "op": "null", 
      "name": "bn_4_moving_mean", 
      "attrs": {
        "__init__": "[\"zero\", {}]", 
        "eps": "0.0001", 
        "fix_gamma": "True", 
        "momentum": "0.99"
      }, 
      "inputs": []
    }, 
    {
      "op": "null", 
      "name": "bn_4_moving_var", 
      "attrs": {
        "__init__": "[\"one\", {}]", 
        "eps": "0.0001", 
        "fix_gamma": "True", 
        "momentum": "0.99"
      }, 
      "inputs": []
    }, 
    {
      "op": "BatchNorm", 
      "name": "bn_4", 
      "attrs": {
        "eps": "0.0001", 
        "fix_gamma": "True", 
        "momentum": "0.99"
      }, 
      "inputs": [[3497, 0, 0], [3498, 0, 0], [3499, 0, 0], [3500, 0, 1], [3501, 0, 1]]
    }, 
    {
      "op": "Activation", 
      "name": "dice_sigmoid_4", 
      "attrs": {"act_type": "sigmoid"}, 
      "inputs": [[3502, 0, 0]]
    }, 
    {
      "op": "_rminus_scalar", 
      "name": "_rminusscalar299", 
      "attrs": {"scalar": "1.0"}, 
      "inputs": [[3503, 0, 0]]
    }, 
    {
      "op": "elemwise_mul", 
      "name": "_mul308", 
      "inputs": [[3504, 0, 0], [3497, 0, 0]]
    }, 
    {
      "op": "broadcast_mul", 
      "name": "broadcast_mul417", 
      "inputs": [[1, 0, 0], [3505, 0, 0]]
    }, 
    {
      "op": "elemwise_mul", 
      "name": "_mul309", 
      "inputs": [[3503, 0, 0], [3497, 0, 0]]
    }, 
    {
      "op": "elemwise_add", 
      "name": "_plus500", 
      "inputs": [[3506, 0, 0], [3507, 0, 0]]
    }, 
    {
      "op": "null", 
      "name": "fc_5_weight", 
      "attrs": {"num_hidden": "100"}, 
      "inputs": []
    }, 
    {
      "op": "null", 
      "name": "fc_5_bias", 
      "attrs": {"num_hidden": "100"}, 
      "inputs": []
    }, 
    {
      "op": "FullyConnected", 
      "name": "fc_5", 
      "attrs": {"num_hidden": "100"}, 
      "inputs": [[3508, 0, 0], [3509, 0, 0], [3510, 0, 0]]
    }, 
    {
      "op": "null", 
      "name": "bn_5_gamma", 
      "attrs": {
        "eps": "0.0001", 
        "fix_gamma": "True", 
        "momentum": "0.99"
      }, 
      "inputs": []
    }, 
    {
      "op": "null", 
      "name": "bn_5_beta", 
      "attrs": {
        "eps": "0.0001", 
        "fix_gamma": "True", 
        "momentum": "0.99"
      }, 
      "inputs": []
    }, 
    {
      "op": "null", 
      "name": "bn_5_moving_mean", 
      "attrs": {
        "__init__": "[\"zero\", {}]", 
        "eps": "0.0001", 
        "fix_gamma": "True", 
        "momentum": "0.99"
      }, 
      "inputs": []
    }, 
    {
      "op": "null", 
      "name": "bn_5_moving_var", 
      "attrs": {
        "__init__": "[\"one\", {}]", 
        "eps": "0.0001", 
        "fix_gamma": "True", 
        "momentum": "0.99"
      }, 
      "inputs": []
    }, 
    {
      "op": "BatchNorm", 
      "name": "bn_5", 
      "attrs": {
        "eps": "0.0001", 
        "fix_gamma": "True", 
        "momentum": "0.99"
      }, 
      "inputs": [[3511, 0, 0], [3512, 0, 0], [3513, 0, 0], [3514, 0, 1], [3515, 0, 1]]
    }, 
    {
      "op": "Activation", 
      "name": "dice_sigmoid_5", 
      "attrs": {"act_type": "sigmoid"}, 
      "inputs": [[3516, 0, 0]]
    }, 
    {
      "op": "_rminus_scalar", 
      "name": "_rminusscalar300", 
      "attrs": {"scalar": "1.0"}, 
      "inputs": [[3517, 0, 0]]
    }, 
    {
      "op": "elemwise_mul", 
      "name": "_mul310", 
      "inputs": [[3518, 0, 0], [3511, 0, 0]]
    }, 
    {
      "op": "broadcast_mul", 
      "name": "broadcast_mul418", 
      "inputs": [[0, 0, 0], [3519, 0, 0]]
    }, 
    {
      "op": "elemwise_mul", 
      "name": "_mul311", 
      "inputs": [[3517, 0, 0], [3511, 0, 0]]
    }, 
    {
      "op": "elemwise_add", 
      "name": "_plus501", 
      "inputs": [[3520, 0, 0], [3521, 0, 0]]
    }, 
    {
      "op": "null", 
      "name": "fc_6_weight", 
      "attrs": {"num_hidden": "2"}, 
      "inputs": []
    }, 
    {
      "op": "null", 
      "name": "fc_6_bias", 
      "attrs": {"num_hidden": "2"}, 
      "inputs": []
    }, 
    {
      "op": "FullyConnected", 
      "name": "fc_6", 
      "attrs": {"num_hidden": "2"}, 
      "inputs": [[3522, 0, 0], [3523, 0, 0], [3524, 0, 0]]
    }, 
    {
      "op": "SoftmaxActivation", 
      "name": "softmaxactivation12", 
      "inputs": [[3525, 0, 0]]
    }
  ], 
  "arg_nodes": [
    0, 
    1, 
    2, 
    3, 
    4, 
    5, 
    6, 
    7, 
    10, 
    43, 
    44, 
    55, 
    56, 
    58, 
    59, 
    67, 
    68, 
    71, 
    72, 
    74, 
    75, 
    83, 
    84, 
    87, 
    88, 
    90, 
    91, 
    102, 
    103, 
    106, 
    107, 
    109, 
    110, 
    118, 
    119, 
    122, 
    123, 
    125, 
    126, 
    134, 
    135, 
    138, 
    139, 
    141, 
    142, 
    155, 
    156, 
    160, 
    161, 
    1749, 
    1750, 
    1753, 
    1754, 
    1756, 
    1757, 
    1765, 
    1766, 
    1769, 
    1770, 
    1772, 
    1773, 
    1781, 
    1782, 
    1785, 
    1786, 
    1788, 
    1789, 
    1802, 
    1803, 
    1807, 
    1808, 
    3396, 
    3397, 
    3400, 
    3401, 
    3403, 
    3404, 
    3412, 
    3413, 
    3416, 
    3417, 
    3419, 
    3420, 
    3428, 
    3429, 
    3432, 
    3433, 
    3435, 
    3436, 
    3448, 
    3449, 
    3450, 
    3451, 
    3453, 
    3454, 
    3456, 
    3457, 
    3458, 
    3459, 
    3467, 
    3468, 
    3470, 
    3471, 
    3472, 
    3473, 
    3481, 
    3482, 
    3484, 
    3485, 
    3486, 
    3487, 
    3495, 
    3496, 
    3498, 
    3499, 
    3500, 
    3501, 
    3509, 
    3510, 
    3512, 
    3513, 
    3514, 
    3515, 
    3523, 
    3524
  ], 
  "node_row_ptr": [
    0, 
    1, 
    2, 
    3, 
    4, 
    5, 
    6, 
    7, 
    8, 
    9, 
    10, 
    11, 
    12, 
    13, 
    14, 
    15, 
    16, 
    17, 
    18, 
    19, 
    20, 
    21, 
    22, 
    23, 
    24, 
    25, 
    26, 
    27, 
    28, 
    29, 
    30, 
    31, 
    32, 
    33, 
    34, 
    35, 
    36, 
    37, 
    38, 
    39, 
    40, 
    41, 
    42, 
    43, 
    44, 
    45, 
    46, 
    47, 
    48, 
    49, 
    50, 
    51, 
    52, 
    53, 
    54, 
    55, 
    56, 
    57, 
    58, 
    59, 
    60, 
    61, 
    62, 
    63, 
    64, 
    65, 
    66, 
    67, 
    68, 
    69, 
    70, 
    71, 
    72, 
    73, 
    74, 
    75, 
    76, 
    77, 
    78, 
    79, 
    80, 
    81, 
    82, 
    83, 
    84, 
    85, 
    86, 
    87, 
    88, 
    89, 
    90, 
    91, 
    92, 
    93, 
    94, 
    95, 
    96, 
    97, 
    98, 
    99, 
    100, 
    101, 
    102, 
    103, 
    104, 
    105, 
    106, 
    107, 
    108, 
    109, 
    110, 
    111, 
    112, 
    113, 
    114, 
    115, 
    116, 
    117, 
    118, 
    119, 
    120, 
    121, 
    122, 
    123, 
    124, 
    125, 
    126, 
    127, 
    128, 
    129, 
    130, 
    131, 
    132, 
    133, 
    134, 
    135, 
    136, 
    137, 
    138, 
    139, 
    140, 
    141, 
    142, 
    143, 
    144, 
    145, 
    146, 
    147, 
    148, 
    149, 
    150, 
    151, 
    152, 
    153, 
    154, 
    155, 
    156, 
    157, 
    158, 
    161, 
    162, 
    163, 
    164, 
    165, 
    168, 
    169, 
    170, 
    171, 
    172, 
    173, 
    174, 
    175, 
    176, 
    177, 
    178, 
    179, 
    180, 
    181, 
    182, 
    183, 
    184, 
    185, 
    186, 
    187, 
    188, 
    189, 
    190, 
    191, 
    192, 
    193, 
    194, 
    195, 
    198, 
    199, 
    200, 
    203, 
    204, 
    205, 
    206, 
    207, 
    208, 
    209, 
    210, 
    211, 
    212, 
    213, 
    214, 
    215, 
    216, 
    217, 
    218, 
    219, 
    220, 
    221, 
    222, 
    223, 
    224, 
    225, 
    226, 
    227, 
    230, 
    231, 
    232, 
    233, 
    234, 
    235, 
    238, 
    239, 
    240, 
    241, 
    242, 
    243, 
    244, 
    245, 
    246, 
    247, 
    248, 
    249, 
    250, 
    251, 
    252, 
    253, 
    254, 
    255, 
    256, 
    257, 
    258, 
    259, 
    260, 
    261, 
    262, 
    265, 
    266, 
    267, 
    268, 
    269, 
    270, 
    273, 
    274, 
    275, 
    276, 
    277, 
    278, 
    279, 
    280, 
    281, 
    282, 
    283, 
    284, 
    285, 
    286, 
    287, 
    288, 
    289, 
    290, 
    291, 
    292, 
    293, 
    294, 
    295, 
    296, 
    297, 
    300, 
    301, 
    302, 
    303, 
    304, 
    305, 
    308, 
    309, 
    310, 
    311, 
    312, 
    313, 
    314, 
    315, 
    316, 
    317, 
    318, 
    319, 
    320, 
    321, 
    322, 
    323, 
    324, 
    325, 
    326, 
    327, 
    328, 
    329, 
    330, 
    331, 
    332, 
    335, 
    336, 
    337, 
    338, 
    339, 
    340, 
    343, 
    344, 
    345, 
    346, 
    347, 
    348, 
    349, 
    350, 
    351, 
    352, 
    353, 
    354, 
    355, 
    356, 
    357, 
    358, 
    359, 
    360, 
    361, 
    362, 
    363, 
    364, 
    365, 
    366, 
    367, 
    370, 
    371, 
    372, 
    373, 
    374, 
    375, 
    378, 
    379, 
    380, 
    381, 
    382, 
    383, 
    384, 
    385, 
    386, 
    387, 
    388, 
    389, 
    390, 
    391, 
    392, 
    393, 
    394, 
    395, 
    396, 
    397, 
    398, 
    399, 
    400, 
    401, 
    402, 
    405, 
    406, 
    407, 
    408, 
    409, 
    410, 
    413, 
    414, 
    415, 
    416, 
    417, 
    418, 
    419, 
    420, 
    421, 
    422, 
    423, 
    424, 
    425, 
    426, 
    427, 
    428, 
    429, 
    430, 
    431, 
    432, 
    433, 
    434, 
    435, 
    436, 
    437, 
    440, 
    441, 
    442, 
    443, 
    444, 
    445, 
    448, 
    449, 
    450, 
    451, 
    452, 
    453, 
    454, 
    455, 
    456, 
    457, 
    458, 
    459, 
    460, 
    461, 
    462, 
    463, 
    464, 
    465, 
    466, 
    467, 
    468, 
    469, 
    470, 
    471, 
    472, 
    475, 
    476, 
    477, 
    478, 
    479, 
    480, 
    483, 
    484, 
    485, 
    486, 
    487, 
    488, 
    489, 
    490, 
    491, 
    492, 
    493, 
    494, 
    495, 
    496, 
    497, 
    498, 
    499, 
    500, 
    501, 
    502, 
    503, 
    504, 
    505, 
    506, 
    507, 
    510, 
    511, 
    512, 
    513, 
    514, 
    515, 
    518, 
    519, 
    520, 
    521, 
    522, 
    523, 
    524, 
    525, 
    526, 
    527, 
    528, 
    529, 
    530, 
    531, 
    532, 
    533, 
    534, 
    535, 
    536, 
    537, 
    538, 
    539, 
    540, 
    541, 
    542, 
    545, 
    546, 
    547, 
    548, 
    549, 
    550, 
    553, 
    554, 
    555, 
    556, 
    557, 
    558, 
    559, 
    560, 
    561, 
    562, 
    563, 
    564, 
    565, 
    566, 
    567, 
    568, 
    569, 
    570, 
    571, 
    572, 
    573, 
    574, 
    575, 
    576, 
    577, 
    580, 
    581, 
    582, 
    583, 
    584, 
    585, 
    588, 
    589, 
    590, 
    591, 
    592, 
    593, 
    594, 
    595, 
    596, 
    597, 
    598, 
    599, 
    600, 
    601, 
    602, 
    603, 
    604, 
    605, 
    606, 
    607, 
    608, 
    609, 
    610, 
    611, 
    612, 
    615, 
    616, 
    617, 
    618, 
    619, 
    620, 
    623, 
    624, 
    625, 
    626, 
    627, 
    628, 
    629, 
    630, 
    631, 
    632, 
    633, 
    634, 
    635, 
    636, 
    637, 
    638, 
    639, 
    640, 
    641, 
    642, 
    643, 
    644, 
    645, 
    646, 
    647, 
    650, 
    651, 
    652, 
    653, 
    654, 
    655, 
    658, 
    659, 
    660, 
    661, 
    662, 
    663, 
    664, 
    665, 
    666, 
    667, 
    668, 
    669, 
    670, 
    671, 
    672, 
    673, 
    674, 
    675, 
    676, 
    677, 
    678, 
    679, 
    680, 
    681, 
    682, 
    685, 
    686, 
    687, 
    688, 
    689, 
    690, 
    693, 
    694, 
    695, 
    696, 
    697, 
    698, 
    699, 
    700, 
    701, 
    702, 
    703, 
    704, 
    705, 
    706, 
    707, 
    708, 
    709, 
    710, 
    711, 
    712, 
    713, 
    714, 
    715, 
    716, 
    717, 
    720, 
    721, 
    722, 
    723, 
    724, 
    725, 
    728, 
    729, 
    730, 
    731, 
    732, 
    733, 
    734, 
    735, 
    736, 
    737, 
    738, 
    739, 
    740, 
    741, 
    742, 
    743, 
    744, 
    745, 
    746, 
    747, 
    748, 
    749, 
    750, 
    751, 
    752, 
    755, 
    756, 
    757, 
    758, 
    759, 
    760, 
    763, 
    764, 
    765, 
    766, 
    767, 
    768, 
    769, 
    770, 
    771, 
    772, 
    773, 
    774, 
    775, 
    776, 
    777, 
    778, 
    779, 
    780, 
    781, 
    782, 
    783, 
    784, 
    785, 
    786, 
    787, 
    790, 
    791, 
    792, 
    793, 
    794, 
    795, 
    798, 
    799, 
    800, 
    801, 
    802, 
    803, 
    804, 
    805, 
    806, 
    807, 
    808, 
    809, 
    810, 
    811, 
    812, 
    813, 
    814, 
    815, 
    816, 
    817, 
    818, 
    819, 
    820, 
    821, 
    822, 
    825, 
    826, 
    827, 
    828, 
    829, 
    830, 
    833, 
    834, 
    835, 
    836, 
    837, 
    838, 
    839, 
    840, 
    841, 
    842, 
    843, 
    844, 
    845, 
    846, 
    847, 
    848, 
    849, 
    850, 
    851, 
    852, 
    853, 
    854, 
    855, 
    856, 
    857, 
    860, 
    861, 
    862, 
    863, 
    864, 
    865, 
    868, 
    869, 
    870, 
    871, 
    872, 
    873, 
    874, 
    875, 
    876, 
    877, 
    878, 
    879, 
    880, 
    881, 
    882, 
    883, 
    884, 
    885, 
    886, 
    887, 
    888, 
    889, 
    890, 
    891, 
    892, 
    895, 
    896, 
    897, 
    898, 
    899, 
    900, 
    903, 
    904, 
    905, 
    906, 
    907, 
    908, 
    909, 
    910, 
    911, 
    912, 
    913, 
    914, 
    915, 
    916, 
    917, 
    918, 
    919, 
    920, 
    921, 
    922, 
    923, 
    924, 
    925, 
    926, 
    927, 
    930, 
    931, 
    932, 
    933, 
    934, 
    935, 
    938, 
    939, 
    940, 
    941, 
    942, 
    943, 
    944, 
    945, 
    946, 
    947, 
    948, 
    949, 
    950, 
    951, 
    952, 
    953, 
    954, 
    955, 
    956, 
    957, 
    958, 
    959, 
    960, 
    961, 
    962, 
    965, 
    966, 
    967, 
    968, 
    969, 
    970, 
    973, 
    974, 
    975, 
    976, 
    977, 
    978, 
    979, 
    980, 
    981, 
    982, 
    983, 
    984, 
    985, 
    986, 
    987, 
    988, 
    989, 
    990, 
    991, 
    992, 
    993, 
    994, 
    995, 
    996, 
    997, 
    1000, 
    1001, 
    1002, 
    1003, 
    1004, 
    1005, 
    1008, 
    1009, 
    1010, 
    1011, 
    1012, 
    1013, 
    1014, 
    1015, 
    1016, 
    1017, 
    1018, 
    1019, 
    1020, 
    1021, 
    1022, 
    1023, 
    1024, 
    1025, 
    1026, 
    1027, 
    1028, 
    1029, 
    1030, 
    1031, 
    1032, 
    1035, 
    1036, 
    1037, 
    1038, 
    1039, 
    1040, 
    1043, 
    1044, 
    1045, 
    1046, 
    1047, 
    1048, 
    1049, 
    1050, 
    1051, 
    1052, 
    1053, 
    1054, 
    1055, 
    1056, 
    1057, 
    1058, 
    1059, 
    1060, 
    1061, 
    1062, 
    1063, 
    1064, 
    1065, 
    1066, 
    1067, 
    1070, 
    1071, 
    1072, 
    1073, 
    1074, 
    1075, 
    1078, 
    1079, 
    1080, 
    1081, 
    1082, 
    1083, 
    1084, 
    1085, 
    1086, 
    1087, 
    1088, 
    1089, 
    1090, 
    1091, 
    1092, 
    1093, 
    1094, 
    1095, 
    1096, 
    1097, 
    1098, 
    1099, 
    1100, 
    1101, 
    1102, 
    1105, 
    1106, 
    1107, 
    1108, 
    1109, 
    1110, 
    1113, 
    1114, 
    1115, 
    1116, 
    1117, 
    1118, 
    1119, 
    1120, 
    1121, 
    1122, 
    1123, 
    1124, 
    1125, 
    1126, 
    1127, 
    1128, 
    1129, 
    1130, 
    1131, 
    1132, 
    1133, 
    1134, 
    1135, 
    1136, 
    1137, 
    1140, 
    1141, 
    1142, 
    1143, 
    1144, 
    1145, 
    1148, 
    1149, 
    1150, 
    1151, 
    1152, 
    1153, 
    1154, 
    1155, 
    1156, 
    1157, 
    1158, 
    1159, 
    1160, 
    1161, 
    1162, 
    1163, 
    1164, 
    1165, 
    1166, 
    1167, 
    1168, 
    1169, 
    1170, 
    1171, 
    1172, 
    1175, 
    1176, 
    1177, 
    1178, 
    1179, 
    1180, 
    1183, 
    1184, 
    1185, 
    1186, 
    1187, 
    1188, 
    1189, 
    1190, 
    1191, 
    1192, 
    1193, 
    1194, 
    1195, 
    1196, 
    1197, 
    1198, 
    1199, 
    1200, 
    1201, 
    1202, 
    1203, 
    1204, 
    1205, 
    1206, 
    1207, 
    1210, 
    1211, 
    1212, 
    1213, 
    1214, 
    1215, 
    1218, 
    1219, 
    1220, 
    1221, 
    1222, 
    1223, 
    1224, 
    1225, 
    1226, 
    1227, 
    1228, 
    1229, 
    1230, 
    1231, 
    1232, 
    1233, 
    1234, 
    1235, 
    1236, 
    1237, 
    1238, 
    1239, 
    1240, 
    1241, 
    1242, 
    1245, 
    1246, 
    1247, 
    1248, 
    1249, 
    1250, 
    1253, 
    1254, 
    1255, 
    1256, 
    1257, 
    1258, 
    1259, 
    1260, 
    1261, 
    1262, 
    1263, 
    1264, 
    1265, 
    1266, 
    1267, 
    1268, 
    1269, 
    1270, 
    1271, 
    1272, 
    1273, 
    1274, 
    1275, 
    1276, 
    1277, 
    1280, 
    1281, 
    1282, 
    1283, 
    1284, 
    1285, 
    1288, 
    1289, 
    1290, 
    1291, 
    1292, 
    1293, 
    1294, 
    1295, 
    1296, 
    1297, 
    1298, 
    1299, 
    1300, 
    1301, 
    1302, 
    1303, 
    1304, 
    1305, 
    1306, 
    1307, 
    1308, 
    1309, 
    1310, 
    1311, 
    1312, 
    1315, 
    1316, 
    1317, 
    1318, 
    1319, 
    1320, 
    1323, 
    1324, 
    1325, 
    1326, 
    1327, 
    1328, 
    1329, 
    1330, 
    1331, 
    1332, 
    1333, 
    1334, 
    1335, 
    1336, 
    1337, 
    1338, 
    1339, 
    1340, 
    1341, 
    1342, 
    1343, 
    1344, 
    1345, 
    1346, 
    1347, 
    1350, 
    1351, 
    1352, 
    1353, 
    1354, 
    1355, 
    1358, 
    1359, 
    1360, 
    1361, 
    1362, 
    1363, 
    1364, 
    1365, 
    1366, 
    1367, 
    1368, 
    1369, 
    1370, 
    1371, 
    1372, 
    1373, 
    1374, 
    1375, 
    1376, 
    1377, 
    1378, 
    1379, 
    1380, 
    1381, 
    1382, 
    1385, 
    1386, 
    1387, 
    1388, 
    1389, 
    1390, 
    1393, 
    1394, 
    1395, 
    1396, 
    1397, 
    1398, 
    1399, 
    1400, 
    1401, 
    1402, 
    1403, 
    1404, 
    1405, 
    1406, 
    1407, 
    1408, 
    1409, 
    1410, 
    1411, 
    1412, 
    1413, 
    1414, 
    1415, 
    1416, 
    1417, 
    1420, 
    1421, 
    1422, 
    1423, 
    1424, 
    1425, 
    1428, 
    1429, 
    1430, 
    1431, 
    1432, 
    1433, 
    1434, 
    1435, 
    1436, 
    1437, 
    1438, 
    1439, 
    1440, 
    1441, 
    1442, 
    1443, 
    1444, 
    1445, 
    1446, 
    1447, 
    1448, 
    1449, 
    1450, 
    1451, 
    1452, 
    1455, 
    1456, 
    1457, 
    1458, 
    1459, 
    1460, 
    1463, 
    1464, 
    1465, 
    1466, 
    1467, 
    1468, 
    1469, 
    1470, 
    1471, 
    1472, 
    1473, 
    1474, 
    1475, 
    1476, 
    1477, 
    1478, 
    1479, 
    1480, 
    1481, 
    1482, 
    1483, 
    1484, 
    1485, 
    1486, 
    1487, 
    1490, 
    1491, 
    1492, 
    1493, 
    1494, 
    1495, 
    1498, 
    1499, 
    1500, 
    1501, 
    1502, 
    1503, 
    1504, 
    1505, 
    1506, 
    1507, 
    1508, 
    1509, 
    1510, 
    1511, 
    1512, 
    1513, 
    1514, 
    1515, 
    1516, 
    1517, 
    1518, 
    1519, 
    1520, 
    1521, 
    1522, 
    1525, 
    1526, 
    1527, 
    1528, 
    1529, 
    1530, 
    1533, 
    1534, 
    1535, 
    1536, 
    1537, 
    1538, 
    1539, 
    1540, 
    1541, 
    1542, 
    1543, 
    1544, 
    1545, 
    1546, 
    1547, 
    1548, 
    1549, 
    1550, 
    1551, 
    1552, 
    1553, 
    1554, 
    1555, 
    1556, 
    1557, 
    1560, 
    1561, 
    1562, 
    1563, 
    1564, 
    1565, 
    1568, 
    1569, 
    1570, 
    1571, 
    1572, 
    1573, 
    1574, 
    1575, 
    1576, 
    1577, 
    1578, 
    1579, 
    1580, 
    1581, 
    1582, 
    1583, 
    1584, 
    1585, 
    1586, 
    1587, 
    1588, 
    1589, 
    1590, 
    1591, 
    1592, 
    1595, 
    1596, 
    1597, 
    1598, 
    1599, 
    1600, 
    1603, 
    1604, 
    1605, 
    1606, 
    1607, 
    1608, 
    1609, 
    1610, 
    1611, 
    1612, 
    1613, 
    1614, 
    1615, 
    1616, 
    1617, 
    1618, 
    1619, 
    1620, 
    1621, 
    1622, 
    1623, 
    1624, 
    1625, 
    1626, 
    1627, 
    1630, 
    1631, 
    1632, 
    1633, 
    1634, 
    1635, 
    1638, 
    1639, 
    1640, 
    1641, 
    1642, 
    1643, 
    1644, 
    1645, 
    1646, 
    1647, 
    1648, 
    1649, 
    1650, 
    1651, 
    1652, 
    1653, 
    1654, 
    1655, 
    1656, 
    1657, 
    1658, 
    1659, 
    1660, 
    1661, 
    1662, 
    1665, 
    1666, 
    1667, 
    1668, 
    1669, 
    1670, 
    1673, 
    1674, 
    1675, 
    1676, 
    1677, 
    1678, 
    1679, 
    1680, 
    1681, 
    1682, 
    1683, 
    1684, 
    1685, 
    1686, 
    1687, 
    1688, 
    1689, 
    1690, 
    1691, 
    1692, 
    1693, 
    1694, 
    1695, 
    1696, 
    1697, 
    1700, 
    1701, 
    1702, 
    1703, 
    1704, 
    1705, 
    1708, 
    1709, 
    1710, 
    1711, 
    1712, 
    1713, 
    1714, 
    1715, 
    1716, 
    1717, 
    1718, 
    1719, 
    1720, 
    1721, 
    1722, 
    1723, 
    1724, 
    1725, 
    1726, 
    1727, 
    1728, 
    1729, 
    1730, 
    1731, 
    1732, 
    1735, 
    1736, 
    1737, 
    1738, 
    1739, 
    1740, 
    1743, 
    1744, 
    1745, 
    1746, 
    1747, 
    1748, 
    1749, 
    1750, 
    1751, 
    1752, 
    1753, 
    1754, 
    1755, 
    1756, 
    1757, 
    1758, 
    1759, 
    1760, 
    1761, 
    1762, 
    1763, 
    1764, 
    1765, 
    1766, 
    1767, 
    1770, 
    1771, 
    1772, 
    1773, 
    1774, 
    1775, 
    1778, 
    1779, 
    1780, 
    1781, 
    1782, 
    1783, 
    1784, 
    1785, 
    1786, 
    1787, 
    1788, 
    1789, 
    1790, 
    1791, 
    1792, 
    1793, 
    1794, 
    1795, 
    1796, 
    1797, 
    1798, 
    1799, 
    1800, 
    1801, 
    1802, 
    1805, 
    1806, 
    1807, 
    1808, 
    1809, 
    1810, 
    1813, 
    1814, 
    1815, 
    1816, 
    1817, 
    1818, 
    1819, 
    1820, 
    1821, 
    1822, 
    1823, 
    1824, 
    1825, 
    1826, 
    1827, 
    1828, 
    1829, 
    1830, 
    1831, 
    1832, 
    1833, 
    1834, 
    1835, 
    1836, 
    1837, 
    1840, 
    1841, 
    1842, 
    1843, 
    1844, 
    1845, 
    1848, 
    1849, 
    1850, 
    1851, 
    1852, 
    1853, 
    1854, 
    1855, 
    1856, 
    1857, 
    1858, 
    1859, 
    1860, 
    1861, 
    1862, 
    1863, 
    1864, 
    1865, 
    1866, 
    1867, 
    1868, 
    1869, 
    1870, 
    1871, 
    1872, 
    1875, 
    1876, 
    1877, 
    1878, 
    1879, 
    1880, 
    1883, 
    1884, 
    1885, 
    1886, 
    1887, 
    1888, 
    1889, 
    1890, 
    1891, 
    1892, 
    1893, 
    1894, 
    1895, 
    1896, 
    1897, 
    1898, 
    1899, 
    1900, 
    1901, 
    1902, 
    1903, 
    1904, 
    1905, 
    1906, 
    1907, 
    1908, 
    1909, 
    1910, 
    1911, 
    1912, 
    1913, 
    1914, 
    1915, 
    1916, 
    1917, 
    1918, 
    1919, 
    1920, 
    1921, 
    1922, 
    1923, 
    1924, 
    1925, 
    1926, 
    1927, 
    1928, 
    1929, 
    1930, 
    1931, 
    1932, 
    1933, 
    1934, 
    1935, 
    1936, 
    1937, 
    1938, 
    1939, 
    1940, 
    1941, 
    1942, 
    1943, 
    1944, 
    1945, 
    1946, 
    1947, 
    1948, 
    1949, 
    1950, 
    1951, 
    1952, 
    1953, 
    1954, 
    1955, 
    1956, 
    1957, 
    1958, 
    1959, 
    1960, 
    1961, 
    1962, 
    1963, 
    1964, 
    1965, 
    1966, 
    1967, 
    1968, 
    1969, 
    1970, 
    1971, 
    1972, 
    1973, 
    1974, 
    1975, 
    1976, 
    1977, 
    1978, 
    1979, 
    1980, 
    1981, 
    1982, 
    1983, 
    1984, 
    1985, 
    1986, 
    1987, 
    1988, 
    1989, 
    1990, 
    1991, 
    1992, 
    1993, 
    1994, 
    1995, 
    1996, 
    1997, 
    1998, 
    1999, 
    2000, 
    2001, 
    2002, 
    2003, 
    2004, 
    2005, 
    2008, 
    2009, 
    2010, 
    2011, 
    2012, 
    2015, 
    2016, 
    2017, 
    2018, 
    2019, 
    2020, 
    2021, 
    2022, 
    2023, 
    2024, 
    2025, 
    2026, 
    2027, 
    2028, 
    2029, 
    2030, 
    2031, 
    2032, 
    2033, 
    2034, 
    2035, 
    2036, 
    2037, 
    2038, 
    2039, 
    2040, 
    2041, 
    2042, 
    2045, 
    2046, 
    2047, 
    2050, 
    2051, 
    2052, 
    2053, 
    2054, 
    2055, 
    2056, 
    2057, 
    2058, 
    2059, 
    2060, 
    2061, 
    2062, 
    2063, 
    2064, 
    2065, 
    2066, 
    2067, 
    2068, 
    2069, 
    2070, 
    2071, 
    2072, 
    2073, 
    2074, 
    2077, 
    2078, 
    2079, 
    2080, 
    2081, 
    2082, 
    2085, 
    2086, 
    2087, 
    2088, 
    2089, 
    2090, 
    2091, 
    2092, 
    2093, 
    2094, 
    2095, 
    2096, 
    2097, 
    2098, 
    2099, 
    2100, 
    2101, 
    2102, 
    2103, 
    2104, 
    2105, 
    2106, 
    2107, 
    2108, 
    2109, 
    2112, 
    2113, 
    2114, 
    2115, 
    2116, 
    2117, 
    2120, 
    2121, 
    2122, 
    2123, 
    2124, 
    2125, 
    2126, 
    2127, 
    2128, 
    2129, 
    2130, 
    2131, 
    2132, 
    2133, 
    2134, 
    2135, 
    2136, 
    2137, 
    2138, 
    2139, 
    2140, 
    2141, 
    2142, 
    2143, 
    2144, 
    2147, 
    2148, 
    2149, 
    2150, 
    2151, 
    2152, 
    2155, 
    2156, 
    2157, 
    2158, 
    2159, 
    2160, 
    2161, 
    2162, 
    2163, 
    2164, 
    2165, 
    2166, 
    2167, 
    2168, 
    2169, 
    2170, 
    2171, 
    2172, 
    2173, 
    2174, 
    2175, 
    2176, 
    2177, 
    2178, 
    2179, 
    2182, 
    2183, 
    2184, 
    2185, 
    2186, 
    2187, 
    2190, 
    2191, 
    2192, 
    2193, 
    2194, 
    2195, 
    2196, 
    2197, 
    2198, 
    2199, 
    2200, 
    2201, 
    2202, 
    2203, 
    2204, 
    2205, 
    2206, 
    2207, 
    2208, 
    2209, 
    2210, 
    2211, 
    2212, 
    2213, 
    2214, 
    2217, 
    2218, 
    2219, 
    2220, 
    2221, 
    2222, 
    2225, 
    2226, 
    2227, 
    2228, 
    2229, 
    2230, 
    2231, 
    2232, 
    2233, 
    2234, 
    2235, 
    2236, 
    2237, 
    2238, 
    2239, 
    2240, 
    2241, 
    2242, 
    2243, 
    2244, 
    2245, 
    2246, 
    2247, 
    2248, 
    2249, 
    2252, 
    2253, 
    2254, 
    2255, 
    2256, 
    2257, 
    2260, 
    2261, 
    2262, 
    2263, 
    2264, 
    2265, 
    2266, 
    2267, 
    2268, 
    2269, 
    2270, 
    2271, 
    2272, 
    2273, 
    2274, 
    2275, 
    2276, 
    2277, 
    2278, 
    2279, 
    2280, 
    2281, 
    2282, 
    2283, 
    2284, 
    2287, 
    2288, 
    2289, 
    2290, 
    2291, 
    2292, 
    2295, 
    2296, 
    2297, 
    2298, 
    2299, 
    2300, 
    2301, 
    2302, 
    2303, 
    2304, 
    2305, 
    2306, 
    2307, 
    2308, 
    2309, 
    2310, 
    2311, 
    2312, 
    2313, 
    2314, 
    2315, 
    2316, 
    2317, 
    2318, 
    2319, 
    2322, 
    2323, 
    2324, 
    2325, 
    2326, 
    2327, 
    2330, 
    2331, 
    2332, 
    2333, 
    2334, 
    2335, 
    2336, 
    2337, 
    2338, 
    2339, 
    2340, 
    2341, 
    2342, 
    2343, 
    2344, 
    2345, 
    2346, 
    2347, 
    2348, 
    2349, 
    2350, 
    2351, 
    2352, 
    2353, 
    2354, 
    2357, 
    2358, 
    2359, 
    2360, 
    2361, 
    2362, 
    2365, 
    2366, 
    2367, 
    2368, 
    2369, 
    2370, 
    2371, 
    2372, 
    2373, 
    2374, 
    2375, 
    2376, 
    2377, 
    2378, 
    2379, 
    2380, 
    2381, 
    2382, 
    2383, 
    2384, 
    2385, 
    2386, 
    2387, 
    2388, 
    2389, 
    2392, 
    2393, 
    2394, 
    2395, 
    2396, 
    2397, 
    2400, 
    2401, 
    2402, 
    2403, 
    2404, 
    2405, 
    2406, 
    2407, 
    2408, 
    2409, 
    2410, 
    2411, 
    2412, 
    2413, 
    2414, 
    2415, 
    2416, 
    2417, 
    2418, 
    2419, 
    2420, 
    2421, 
    2422, 
    2423, 
    2424, 
    2427, 
    2428, 
    2429, 
    2430, 
    2431, 
    2432, 
    2435, 
    2436, 
    2437, 
    2438, 
    2439, 
    2440, 
    2441, 
    2442, 
    2443, 
    2444, 
    2445, 
    2446, 
    2447, 
    2448, 
    2449, 
    2450, 
    2451, 
    2452, 
    2453, 
    2454, 
    2455, 
    2456, 
    2457, 
    2458, 
    2459, 
    2462, 
    2463, 
    2464, 
    2465, 
    2466, 
    2467, 
    2470, 
    2471, 
    2472, 
    2473, 
    2474, 
    2475, 
    2476, 
    2477, 
    2478, 
    2479, 
    2480, 
    2481, 
    2482, 
    2483, 
    2484, 
    2485, 
    2486, 
    2487, 
    2488, 
    2489, 
    2490, 
    2491, 
    2492, 
    2493, 
    2494, 
    2497, 
    2498, 
    2499, 
    2500, 
    2501, 
    2502, 
    2505, 
    2506, 
    2507, 
    2508, 
    2509, 
    2510, 
    2511, 
    2512, 
    2513, 
    2514, 
    2515, 
    2516, 
    2517, 
    2518, 
    2519, 
    2520, 
    2521, 
    2522, 
    2523, 
    2524, 
    2525, 
    2526, 
    2527, 
    2528, 
    2529, 
    2532, 
    2533, 
    2534, 
    2535, 
    2536, 
    2537, 
    2540, 
    2541, 
    2542, 
    2543, 
    2544, 
    2545, 
    2546, 
    2547, 
    2548, 
    2549, 
    2550, 
    2551, 
    2552, 
    2553, 
    2554, 
    2555, 
    2556, 
    2557, 
    2558, 
    2559, 
    2560, 
    2561, 
    2562, 
    2563, 
    2564, 
    2567, 
    2568, 
    2569, 
    2570, 
    2571, 
    2572, 
    2575, 
    2576, 
    2577, 
    2578, 
    2579, 
    2580, 
    2581, 
    2582, 
    2583, 
    2584, 
    2585, 
    2586, 
    2587, 
    2588, 
    2589, 
    2590, 
    2591, 
    2592, 
    2593, 
    2594, 
    2595, 
    2596, 
    2597, 
    2598, 
    2599, 
    2602, 
    2603, 
    2604, 
    2605, 
    2606, 
    2607, 
    2610, 
    2611, 
    2612, 
    2613, 
    2614, 
    2615, 
    2616, 
    2617, 
    2618, 
    2619, 
    2620, 
    2621, 
    2622, 
    2623, 
    2624, 
    2625, 
    2626, 
    2627, 
    2628, 
    2629, 
    2630, 
    2631, 
    2632, 
    2633, 
    2634, 
    2637, 
    2638, 
    2639, 
    2640, 
    2641, 
    2642, 
    2645, 
    2646, 
    2647, 
    2648, 
    2649, 
    2650, 
    2651, 
    2652, 
    2653, 
    2654, 
    2655, 
    2656, 
    2657, 
    2658, 
    2659, 
    2660, 
    2661, 
    2662, 
    2663, 
    2664, 
    2665, 
    2666, 
    2667, 
    2668, 
    2669, 
    2672, 
    2673, 
    2674, 
    2675, 
    2676, 
    2677, 
    2680, 
    2681, 
    2682, 
    2683, 
    2684, 
    2685, 
    2686, 
    2687, 
    2688, 
    2689, 
    2690, 
    2691, 
    2692, 
    2693, 
    2694, 
    2695, 
    2696, 
    2697, 
    2698, 
    2699, 
    2700, 
    2701, 
    2702, 
    2703, 
    2704, 
    2707, 
    2708, 
    2709, 
    2710, 
    2711, 
    2712, 
    2715, 
    2716, 
    2717, 
    2718, 
    2719, 
    2720, 
    2721, 
    2722, 
    2723, 
    2724, 
    2725, 
    2726, 
    2727, 
    2728, 
    2729, 
    2730, 
    2731, 
    2732, 
    2733, 
    2734, 
    2735, 
    2736, 
    2737, 
    2738, 
    2739, 
    2742, 
    2743, 
    2744, 
    2745, 
    2746, 
    2747, 
    2750, 
    2751, 
    2752, 
    2753, 
    2754, 
    2755, 
    2756, 
    2757, 
    2758, 
    2759, 
    2760, 
    2761, 
    2762, 
    2763, 
    2764, 
    2765, 
    2766, 
    2767, 
    2768, 
    2769, 
    2770, 
    2771, 
    2772, 
    2773, 
    2774, 
    2777, 
    2778, 
    2779, 
    2780, 
    2781, 
    2782, 
    2785, 
    2786, 
    2787, 
    2788, 
    2789, 
    2790, 
    2791, 
    2792, 
    2793, 
    2794, 
    2795, 
    2796, 
    2797, 
    2798, 
    2799, 
    2800, 
    2801, 
    2802, 
    2803, 
    2804, 
    2805, 
    2806, 
    2807, 
    2808, 
    2809, 
    2812, 
    2813, 
    2814, 
    2815, 
    2816, 
    2817, 
    2820, 
    2821, 
    2822, 
    2823, 
    2824, 
    2825, 
    2826, 
    2827, 
    2828, 
    2829, 
    2830, 
    2831, 
    2832, 
    2833, 
    2834, 
    2835, 
    2836, 
    2837, 
    2838, 
    2839, 
    2840, 
    2841, 
    2842, 
    2843, 
    2844, 
    2847, 
    2848, 
    2849, 
    2850, 
    2851, 
    2852, 
    2855, 
    2856, 
    2857, 
    2858, 
    2859, 
    2860, 
    2861, 
    2862, 
    2863, 
    2864, 
    2865, 
    2866, 
    2867, 
    2868, 
    2869, 
    2870, 
    2871, 
    2872, 
    2873, 
    2874, 
    2875, 
    2876, 
    2877, 
    2878, 
    2879, 
    2882, 
    2883, 
    2884, 
    2885, 
    2886, 
    2887, 
    2890, 
    2891, 
    2892, 
    2893, 
    2894, 
    2895, 
    2896, 
    2897, 
    2898, 
    2899, 
    2900, 
    2901, 
    2902, 
    2903, 
    2904, 
    2905, 
    2906, 
    2907, 
    2908, 
    2909, 
    2910, 
    2911, 
    2912, 
    2913, 
    2914, 
    2917, 
    2918, 
    2919, 
    2920, 
    2921, 
    2922, 
    2925, 
    2926, 
    2927, 
    2928, 
    2929, 
    2930, 
    2931, 
    2932, 
    2933, 
    2934, 
    2935, 
    2936, 
    2937, 
    2938, 
    2939, 
    2940, 
    2941, 
    2942, 
    2943, 
    2944, 
    2945, 
    2946, 
    2947, 
    2948, 
    2949, 
    2952, 
    2953, 
    2954, 
    2955, 
    2956, 
    2957, 
    2960, 
    2961, 
    2962, 
    2963, 
    2964, 
    2965, 
    2966, 
    2967, 
    2968, 
    2969, 
    2970, 
    2971, 
    2972, 
    2973, 
    2974, 
    2975, 
    2976, 
    2977, 
    2978, 
    2979, 
    2980, 
    2981, 
    2982, 
    2983, 
    2984, 
    2987, 
    2988, 
    2989, 
    2990, 
    2991, 
    2992, 
    2995, 
    2996, 
    2997, 
    2998, 
    2999, 
    3000, 
    3001, 
    3002, 
    3003, 
    3004, 
    3005, 
    3006, 
    3007, 
    3008, 
    3009, 
    3010, 
    3011, 
    3012, 
    3013, 
    3014, 
    3015, 
    3016, 
    3017, 
    3018, 
    3019, 
    3022, 
    3023, 
    3024, 
    3025, 
    3026, 
    3027, 
    3030, 
    3031, 
    3032, 
    3033, 
    3034, 
    3035, 
    3036, 
    3037, 
    3038, 
    3039, 
    3040, 
    3041, 
    3042, 
    3043, 
    3044, 
    3045, 
    3046, 
    3047, 
    3048, 
    3049, 
    3050, 
    3051, 
    3052, 
    3053, 
    3054, 
    3057, 
    3058, 
    3059, 
    3060, 
    3061, 
    3062, 
    3065, 
    3066, 
    3067, 
    3068, 
    3069, 
    3070, 
    3071, 
    3072, 
    3073, 
    3074, 
    3075, 
    3076, 
    3077, 
    3078, 
    3079, 
    3080, 
    3081, 
    3082, 
    3083, 
    3084, 
    3085, 
    3086, 
    3087, 
    3088, 
    3089, 
    3092, 
    3093, 
    3094, 
    3095, 
    3096, 
    3097, 
    3100, 
    3101, 
    3102, 
    3103, 
    3104, 
    3105, 
    3106, 
    3107, 
    3108, 
    3109, 
    3110, 
    3111, 
    3112, 
    3113, 
    3114, 
    3115, 
    3116, 
    3117, 
    3118, 
    3119, 
    3120, 
    3121, 
    3122, 
    3123, 
    3124, 
    3127, 
    3128, 
    3129, 
    3130, 
    3131, 
    3132, 
    3135, 
    3136, 
    3137, 
    3138, 
    3139, 
    3140, 
    3141, 
    3142, 
    3143, 
    3144, 
    3145, 
    3146, 
    3147, 
    3148, 
    3149, 
    3150, 
    3151, 
    3152, 
    3153, 
    3154, 
    3155, 
    3156, 
    3157, 
    3158, 
    3159, 
    3162, 
    3163, 
    3164, 
    3165, 
    3166, 
    3167, 
    3170, 
    3171, 
    3172, 
    3173, 
    3174, 
    3175, 
    3176, 
    3177, 
    3178, 
    3179, 
    3180, 
    3181, 
    3182, 
    3183, 
    3184, 
    3185, 
    3186, 
    3187, 
    3188, 
    3189, 
    3190, 
    3191, 
    3192, 
    3193, 
    3194, 
    3197, 
    3198, 
    3199, 
    3200, 
    3201, 
    3202, 
    3205, 
    3206, 
    3207, 
    3208, 
    3209, 
    3210, 
    3211, 
    3212, 
    3213, 
    3214, 
    3215, 
    3216, 
    3217, 
    3218, 
    3219, 
    3220, 
    3221, 
    3222, 
    3223, 
    3224, 
    3225, 
    3226, 
    3227, 
    3228, 
    3229, 
    3232, 
    3233, 
    3234, 
    3235, 
    3236, 
    3237, 
    3240, 
    3241, 
    3242, 
    3243, 
    3244, 
    3245, 
    3246, 
    3247, 
    3248, 
    3249, 
    3250, 
    3251, 
    3252, 
    3253, 
    3254, 
    3255, 
    3256, 
    3257, 
    3258, 
    3259, 
    3260, 
    3261, 
    3262, 
    3263, 
    3264, 
    3267, 
    3268, 
    3269, 
    3270, 
    3271, 
    3272, 
    3275, 
    3276, 
    3277, 
    3278, 
    3279, 
    3280, 
    3281, 
    3282, 
    3283, 
    3284, 
    3285, 
    3286, 
    3287, 
    3288, 
    3289, 
    3290, 
    3291, 
    3292, 
    3293, 
    3294, 
    3295, 
    3296, 
    3297, 
    3298, 
    3299, 
    3302, 
    3303, 
    3304, 
    3305, 
    3306, 
    3307, 
    3310, 
    3311, 
    3312, 
    3313, 
    3314, 
    3315, 
    3316, 
    3317, 
    3318, 
    3319, 
    3320, 
    3321, 
    3322, 
    3323, 
    3324, 
    3325, 
    3326, 
    3327, 
    3328, 
    3329, 
    3330, 
    3331, 
    3332, 
    3333, 
    3334, 
    3337, 
    3338, 
    3339, 
    3340, 
    3341, 
    3342, 
    3345, 
    3346, 
    3347, 
    3348, 
    3349, 
    3350, 
    3351, 
    3352, 
    3353, 
    3354, 
    3355, 
    3356, 
    3357, 
    3358, 
    3359, 
    3360, 
    3361, 
    3362, 
    3363, 
    3364, 
    3365, 
    3366, 
    3367, 
    3368, 
    3369, 
    3372, 
    3373, 
    3374, 
    3375, 
    3376, 
    3377, 
    3380, 
    3381, 
    3382, 
    3383, 
    3384, 
    3385, 
    3386, 
    3387, 
    3388, 
    3389, 
    3390, 
    3391, 
    3392, 
    3393, 
    3394, 
    3395, 
    3396, 
    3397, 
    3398, 
    3399, 
    3400, 
    3401, 
    3402, 
    3403, 
    3404, 
    3407, 
    3408, 
    3409, 
    3410, 
    3411, 
    3412, 
    3415, 
    3416, 
    3417, 
    3418, 
    3419, 
    3420, 
    3421, 
    3422, 
    3423, 
    3424, 
    3425, 
    3426, 
    3427, 
    3428, 
    3429, 
    3430, 
    3431, 
    3432, 
    3433, 
    3434, 
    3435, 
    3436, 
    3437, 
    3438, 
    3439, 
    3442, 
    3443, 
    3444, 
    3445, 
    3446, 
    3447, 
    3450, 
    3451, 
    3452, 
    3453, 
    3454, 
    3455, 
    3456, 
    3457, 
    3458, 
    3459, 
    3460, 
    3461, 
    3462, 
    3463, 
    3464, 
    3465, 
    3466, 
    3467, 
    3468, 
    3469, 
    3470, 
    3471, 
    3472, 
    3473, 
    3474, 
    3477, 
    3478, 
    3479, 
    3480, 
    3481, 
    3482, 
    3485, 
    3486, 
    3487, 
    3488, 
    3489, 
    3490, 
    3491, 
    3492, 
    3493, 
    3494, 
    3495, 
    3496, 
    3497, 
    3498, 
    3499, 
    3500, 
    3501, 
    3502, 
    3503, 
    3504, 
    3505, 
    3506, 
    3507, 
    3508, 
    3509, 
    3512, 
    3513, 
    3514, 
    3515, 
    3516, 
    3517, 
    3520, 
    3521, 
    3522, 
    3523, 
    3524, 
    3525, 
    3526, 
    3527, 
    3528, 
    3529, 
    3530, 
    3531, 
    3532, 
    3533, 
    3534, 
    3535, 
    3536, 
    3537, 
    3538, 
    3539, 
    3540, 
    3541, 
    3542, 
    3543, 
    3544, 
    3547, 
    3548, 
    3549, 
    3550, 
    3551, 
    3552, 
    3555, 
    3556, 
    3557, 
    3558, 
    3559, 
    3560, 
    3561, 
    3562, 
    3563, 
    3564, 
    3565, 
    3566, 
    3567, 
    3568, 
    3569, 
    3570, 
    3571, 
    3572, 
    3573, 
    3574, 
    3575, 
    3576, 
    3577, 
    3578, 
    3579, 
    3582, 
    3583, 
    3584, 
    3585, 
    3586, 
    3587, 
    3590, 
    3591, 
    3592, 
    3593, 
    3594, 
    3595, 
    3596, 
    3597, 
    3598, 
    3599, 
    3600, 
    3601, 
    3602, 
    3603, 
    3604, 
    3605, 
    3606, 
    3607, 
    3608, 
    3609, 
    3610, 
    3611, 
    3612, 
    3613, 
    3614, 
    3617, 
    3618, 
    3619, 
    3620, 
    3621, 
    3622, 
    3625, 
    3626, 
    3627, 
    3628, 
    3629, 
    3630, 
    3631, 
    3632, 
    3633, 
    3634, 
    3635, 
    3636, 
    3637, 
    3638, 
    3639, 
    3640, 
    3641, 
    3642, 
    3643, 
    3644, 
    3645, 
    3646, 
    3647, 
    3648, 
    3649, 
    3652, 
    3653, 
    3654, 
    3655, 
    3656, 
    3657, 
    3660, 
    3661, 
    3662, 
    3663, 
    3664, 
    3665, 
    3666, 
    3667, 
    3668, 
    3669, 
    3670, 
    3671, 
    3672, 
    3673, 
    3674, 
    3675, 
    3676, 
    3677, 
    3678, 
    3679, 
    3680, 
    3681, 
    3682, 
    3683, 
    3684, 
    3687, 
    3688, 
    3689, 
    3690, 
    3691, 
    3692, 
    3695, 
    3696, 
    3697, 
    3698, 
    3699, 
    3700, 
    3701, 
    3702, 
    3703, 
    3704, 
    3705, 
    3706, 
    3707, 
    3708, 
    3709, 
    3710, 
    3711, 
    3712, 
    3713, 
    3714, 
    3715, 
    3716, 
    3717, 
    3718, 
    3719, 
    3722, 
    3723, 
    3724, 
    3725, 
    3726, 
    3727, 
    3730, 
    3731, 
    3732, 
    3733, 
    3734, 
    3735, 
    3736, 
    3737, 
    3738, 
    3739, 
    3740, 
    3741, 
    3742, 
    3743, 
    3744, 
    3745, 
    3746, 
    3747, 
    3748, 
    3749, 
    3750, 
    3751, 
    3752, 
    3753, 
    3754, 
    3755, 
    3756, 
    3757, 
    3758, 
    3759, 
    3760, 
    3761, 
    3762, 
    3763, 
    3764, 
    3765, 
    3766, 
    3767, 
    3768, 
    3769, 
    3770, 
    3771, 
    3772, 
    3773, 
    3774, 
    3775, 
    3776, 
    3777, 
    3778, 
    3779, 
    3780, 
    3781, 
    3782, 
    3783, 
    3784, 
    3785, 
    3786, 
    3787, 
    3788, 
    3789, 
    3790, 
    3791, 
    3792, 
    3793, 
    3794, 
    3795, 
    3796, 
    3797, 
    3798, 
    3799, 
    3800, 
    3801, 
    3802, 
    3803, 
    3804, 
    3805, 
    3806, 
    3807, 
    3808, 
    3809, 
    3810, 
    3811, 
    3812, 
    3813, 
    3814, 
    3815, 
    3816, 
    3817, 
    3818, 
    3819, 
    3820, 
    3821, 
    3822, 
    3823, 
    3824, 
    3825, 
    3826, 
    3827, 
    3828, 
    3829, 
    3830, 
    3831, 
    3832, 
    3833, 
    3834, 
    3835, 
    3836, 
    3837, 
    3838, 
    3839, 
    3840, 
    3841, 
    3842, 
    3843, 
    3844, 
    3845, 
    3846, 
    3847, 
    3848, 
    3849, 
    3850, 
    3851, 
    3852, 
    3855, 
    3856, 
    3857, 
    3858, 
    3859, 
    3860, 
    3861, 
    3862, 
    3865, 
    3866, 
    3867, 
    3868, 
    3869, 
    3870, 
    3871, 
    3872, 
    3873, 
    3874, 
    3875, 
    3876, 
    3877, 
    3878, 
    3881, 
    3882, 
    3883, 
    3884, 
    3885, 
    3886, 
    3887, 
    3888, 
    3889, 
    3890, 
    3891, 
    3892, 
    3893, 
    3894, 
    3897, 
    3898, 
    3899, 
    3900, 
    3901, 
    3902, 
    3903, 
    3904, 
    3905, 
    3906, 
    3907, 
    3908, 
    3909, 
    3910, 
    3913, 
    3914, 
    3915, 
    3916, 
    3917, 
    3918, 
    3919, 
    3920, 
    3921, 
    3922, 
    3923, 
    3924, 
    3925, 
    3926, 
    3929, 
    3930, 
    3931, 
    3932, 
    3933, 
    3934, 
    3935, 
    3936, 
    3937, 
    3938, 
    3939
  ], 
  "heads": [[3526, 0, 0]], 
  "attrs": {"mxnet_version": ["int", 10300]}
}
